…
kl == 2, bspline_values[2],\n                                               torch.where(kl == 3, bspline_values[3], torch.zeros_like(uv)))))\n\n    return result\n```"}
{"problem_id": "pytorch_18", "response": "```python\nimport torch\n\ndef quat2mat(quaternion):\n    EPS = 1e-8\n    inds = torch.tensor([0, 1, 2, 3])\n    quaternion = quaternion[inds]\n    n = torch.dot(quaternion, quaternion)\n    if n < EPS:\n        return torch.eye(3)\n    quaternion = quaternion * torch.sqrt(2.0 / n)\n    q_outer = torch.outer(quaternion, quaternion)\n    rot_mat = torch.tensor([\n        [1 - 2 * q_outer[1, 1] - 2 * q_outer[2, 2], 2 * q_outer[0, 1] - 2 * q_outer[2, 3], 2 * q_outer[0, 2] + 2 * q_outer[1, 3]],\n        [2 * q_outer[0, 1] + 2 * q_outer[2, 3], 1 - 2 * q_outer[0, 0] - 2 * q_outer[2, 2], 2 * q_outer[1, 2] - 2 * q_outer[0, 3]],\n        [2 * q_outer[0, 2] - 2 * q_outer[1, 3], 2 * q_outer[1, 2] + 2 * q_outer[0, 3], 1 - 2 * q_outer[0, 0] - 2 * q_outer[1, 1]]\n    ])\n    return rot_mat\n\n# Test the function\nquaternion = torch.tensor([0.7071, 0.0, 0.7071, 0.0])\nprint(quat2mat(quaternion))\n```"}
{"problem_id": "pytorch_19", "response": "```python\nimport torch\n\ndef farthest_point_sampling(kpts: torch.Tensor, num_points: int):\n    \"\"\"\n    This function performs farthest point sampling on a set of keypoints.\n    \n    Param
…
