…
/usr/local/lib/python3.10/site-packages/keras/src/layers/core/dense.py:87: UserWarning: Do not pass an `input_shape`/`input_dim` argument to a layer. When using Sequential models, prefer using an `Input(shape)` object as the first layer in the model instead.
  super().__init__(activity_regularizer=activity_regularizer, **kwargs)
Model: "sequential"
┏━━━━━━━━━━━━━━━━━━━━━━━━━━━━━━━━━┳━━━━━━━━━━━━━━━━━━━━━━━━┳━━━━━━━━━━━━━━━┓
┃ Layer (type)                    ┃ Output Shape           ┃       Param # ┃
┡━━━━━━━━━━━━━━━━━━━━━━━━━━━━━━━━━╇━━━━━━━━━━━━━━━━━━━━━━━━╇━━━━━━━━━━━━━━━┩
│ dense (Dense)                   │ (None, 15, 11, 100)    │           900 │
├─────────────────────────────────┼────────────────────────┼───────────────┤
│ dense_1 (Dense)                 │ (None, 15, 11, 100)    │        10,100 │
├─────────────────────────────────┼────────────────────────┼───────────────┤
│ flatten (Flatten)               │ (None, 16500)          │             0 │
├─────────────────────────────────┼────────────────────────┼───────────────┤
│ dense_2 (Dense)                 │ (None, 1)              │        16,501 │
└─────────────────────────────────┴────────────────────────┴───────────────┘
 Total params: 27,501 (107.43 KB)
 Trainable params: 27,501 (107.43 KB)
 Non-trainable params: 0 (0.00 B)
Model: "sequential_1"
┏━━━━━━━━━━━━━━━━━━━━━━━━━━━━━━━━━┳━━━━━━━━━━━━━━━━━━━━━━━━┳━━━━━━━━━━━━━━━┓
┃ Layer (type)                    ┃ Output Shape           ┃       Param # ┃
┡━━━━━━━━━━━━━━━━━━━━━━━━━━━━━━━━━╇━━━━━━━━━━━━━━━━━━━━━━━━╇━━━━━━━━━━━━━━━┩
│ dense_3 (Dense)                 │ (None, 100)            │           800 │
├─────────────────────────────────┼────────────────────────┼───────────────┤
│ dense_4 (Dense)                 │ (None, 100)            │        10,100 │
├─────────────────────────────────┼────────────────────────┼───────────────┤
│ flatten_1 (Flatten)             │ (None, 100)            │             0 │
├─────────────────────────────────┼────────────────────────┼───────────────┤
│ dense_5 (Dense)                 │ (None, 1)              │           101 │
└─────────────────────────────────┴────────────────────────┴───────────────┘
 Total params: 11,001 (42.97 KB)
 Trainable params: 11,001 (42.97 KB)
 Non-trainable params: 0 (0.00 B)
Model: "sequential_2"
┏━━━━━━━━━━━━━━━━━━━━━━━━━━━━━━━━━┳━━━━━━━━━━━━━━━━━━━━━━━━┳━━━━━━━━━━━━━━━┓
┃ Layer (type)                    ┃ Output Shape           ┃       Param # ┃
┡━━━━━━━━━━━━━━━━━━━━━━━━━━━━━━━━━╇━━━━━━━━━━━━━━━━━━━━━━━━╇━━━━━━━━━━━━━━━┩
│ dense_6 (Dense)                 │ (None, 19, 100)        │         1,200 │
├─────────────────────────────────┼────────────────────────┼───────────────┤
│ dense_7 (Dense)                 │ (None, 19, 100)        │        10,100 │
├─────────────────────────────────┼────────────────────────┼───────────────┤
│ flatten_2 (Flatten)             │ (None, 1900)           │             0 │
├─────────────────────────────────┼────────────────────────┼───────────────┤
│ dense_8 (Dense)                 │ (None, 1)              │         1,901 │
└─────────────────────────────────┴────────────────────────┴───────────────┘
 Total params: 13,201 (51.57 KB)
 Trainable params: 13,201 (51.57 KB)
 Non-trainable params: 0 (0.00 B)
Model: "sequential_3"
┏━━━━━━━━━━━━━━━━━━━━━━━━━━━━━━━━━┳━━━━━━━━━━━━━━━━━━━━━━━━┳━━━━━━━━━━━━━━━┓
┃ Layer (type)                    ┃ Output Shape           ┃       Param # ┃
┡━━━━━━━━━━━━━━━━━━━━━━━━━━━━━━━━━╇━━━━━━━━━━━━━━━━━━━━━━━━╇━━━━━━━━━━━━━━━┩
│ dense_9 (Dense)                 │ (None, 4, 8, 100)      │           400 │
├─────────────────────────────────┼────────────────────────┼───────────────┤
│ dense_10 (Dense)                │ (None, 4, 8, 100)      │        10,100 │
├─────────────────────────────────┼────────────────────────┼───────────────┤
│ flatten_3 (Flatten)             │ (None, 3200)           │             0 │
├─────────────────────────────────┼────────────────────────┼───────────────┤
│ dense_11 (Dense)                │ (None, 1)              │         3,201 │
└─────────────────────────────────┴────────────────────────┴───────────────┘
 Total params: 13,701 (53.52 KB)
 Trainable params: 13,701 (53.52 KB)
 Non-trainable params: 0 (0.00 B)
Model: "sequential_4"
┏━━━━━━━━━━━━━━━━━━━━━━━━━━━━━━━━━┳━━━━━━━━━━━━━━━━━━━━━━━━┳━━━━━━━━━━━━━━━┓
┃ Layer (type)                    ┃ Output Shape           ┃       Param # ┃
┡━━━━━━━━━━━━━━━━━━━━━━━━━━━━━━━━━╇━━━━━━━━━━━━━━━━━━━━━━━━╇━━━━━━━━━━━━━━━┩
│ dense_12 (Dense)                │ (None, 2, 100)         │         1,300 │
├─────────────────────────────────┼────────────────────────┼───────────────┤
│ dense_13 (Dense)                │ (None, 2, 100)         │        10,100 │
├─────────────────────────────────┼────────────────────────┼───────────────┤
│ flatten_4 (Flatten)             │ (None, 200)            │             0 │
├─────────────────────────────────┼────────────────────────┼───────────────┤
│ dense_14 (Dense)                │ (None, 1)              │           201 │
└─────────────────────────────────┴────────────────────────┴───────────────┘
 Total params: 11,601 (45.32 KB)
 Trainable params: 11,601 (45.32 KB)
 Non-trainable params: 0 (0.00 B)
Model: "sequential_5"
┏━━━━━━━━━━━━━━━━━━━━━━━━━━━━━━━━━┳━━━━━━━━━━━━━━━━━━━━━━━━┳━━━━━━━━━━━━━━━┓
┃ Layer (type)                    ┃ Output Shape           ┃       Param # ┃
┡━━━━━━━━━━━━━━━━━━━━━━━━━━━━━━━━━╇━━━━━━━━━━━━━━━━━━━━━━━━╇━━━━━━━━━━━━━━━┩
│ dense_15 (Dense)                │ (None, 6, 100)         │           300 │
├─────────────────────────────────┼────────────────────────┼───────────────┤
│ dense_16 (Dense)                │ (None, 6, 100)         │        10,100 │
├─────────────────────────────────┼────────────────────────┼───────────────┤
│ flatten_5 (Flatten)             │ (None, 600)            │             0 │
├─────────────────────────────────┼────────────────────────┼───────────────┤
│ dense_17 (Dense)                │ (None, 1)              │           601 │
└─────────────────────────────────┴────────────────────────┴───────────────┘
 Total params: 11,001 (42.97 KB)
 Trainable params: 11,001 (42.97 KB)
 Non-trainable params: 0 (0.00 B)
Model: "sequential_6"
┏━━━━━━━━━━━━━━━━━━━━━━━━━━━━━━━━━┳━━━━━━━━━━━━━━━━━━━━━━━━┳━━━━━━━━━━━━━━━┓
┃ Layer (type)                    ┃ Output Shape           ┃       Param # ┃
┡━━━━━━━━━━━━━━━━━━━━━━━━━━━━━━━━━╇━━━━━━━━━━━━━━━━━━━━━━━━╇━━━━━━━━━━━━━━━┩
│ dense_18 (Dense)                │ (None, 100)            │           200 │
├─────────────────────────────────┼────────────────────────┼───────────────┤
│ dense_19 (Dense)                │ (None, 100)            │        10,100 │
├─────────────────────────────────┼────────────────────────┼───────────────┤
│ flatten_6 (Flatten)             │ (None, 100)            │             0 │
├─────────────────────────────────┼────────────────────────┼───────────────┤
│ dense_20 (Dense)                │ (None, 1)              │           101 │
└─────────────────────────────────┴────────────────────────┴───────────────┘
 Total params: 10,401 (40.63 KB)
 Trainable params: 10,401 (40.63 KB)
 Non-trainable params: 0 (0.00 B)
Model: "sequential_7"
┏━━━━━━━━━━━━━━━━━━━━━━━━━━━━━━━━━┳━━━━━━━━━━━━━━━━━━━━━━━━┳━━━━━━━━━━━━━━━┓
┃ Layer (type)                    ┃ Output Shape           ┃       Param # ┃
┡━━━━━━━━━━━━━━━━━━━━━━━━━━━━━━━━━╇━━━━━━━━━━━━━━━━━━━━━━━━╇━━━━━━━━━━━━━━━┩
│ dense_21 (Dense)                │ (None, 12, 100)        │         1,800 │
├─────────────────────────────────┼────────────────────────┼───────────────┤
│ dense_22 (Dense)                │ (None, 12, 100)        │        10,100 │
├─────────────────────────────────┼────────────────────────┼───────────────┤
│ flatten_7 (Flatten)             │ (None, 1200)           │             0 │
├─────────────────────────────────┼────────────────────────┼───────────────┤
│ dense_23 (Dense)                │ (None, 1)              │         1,201 │
└─────────────────────────────────┴────────────────────────┴───────────────┘
 Total params: 13,101 (51.18 KB)
 Trainable params: 13,101 (51.18 KB)
 Non-trainable params: 0 (0.00 B)
Model: "sequential_8"
┏━━━━━━━━━━━━━━━━━━━━━━━━━━━━━━━━━┳━━━━━━━━━━━━━━━━━━━━━━━━┳━━━━━━━━━━━━━━━┓
┃ Layer (type)                    ┃ Output Shape           ┃       Param # ┃
┡━━━━━━━━━━━━━━━━━━━━━━━━━━━━━━━━━╇━━━━━━━━━━━━━━━━━━━━━━━━╇━━━━━━━━━━━━━━━┩
│ dense_24 (Dense)                │ (None, 10, 16, 100)    │         1,600 │
├─────────────────────────────────┼────────────────────────┼───────────────┤
│ dense_25 (Dense)                │ (None, 10, 16, 100)    │        10,100 │
├─────────────────────────────────┼────────────────────────┼───────────────┤
│ flatten_8 (Flatten)             │ (None, 16000)          │             0 │
├─────────────────────────────────┼────────────────────────┼───────────────┤
│ dense_26 (Dense)                │ (None, 1)              │        16,001 │
└─────────────────────────────────┴────────────────────────┴───────────────┘
 Total params: 27,701 (108.21 KB)
 Trainable params: 27,701 (108.21 KB)
 Non-trainable params: 0 (0.00 B)
Model: "sequential_9"
┏━━━━━━━━━━━━━━━━━━━━━━━━━━━━━━━━━┳━━━━━━━━━━━━━━━━━━━━━━━━┳━━━━━━━━━━━━━━━┓
┃ Layer (type)                    ┃ Output Shape           ┃       Param # ┃
┡━━━━━━━━━━━━━━━━━━━━━━━━━━━━━━━━━╇━━━━━━━━━━━━━━━━━━━━━━━━╇━━━━━━━━━━━━━━━┩
│ dense_27 (Dense)                │ (None, 15, 100)        │         2,000 │
├─────────────────────────────────┼────────────────────────┼───────────────┤
│ dense_28 (Dense)                │ (None, 15, 100)        │        10,100 │
├─────────────────────────────────┼────────────────────────┼───────────────┤
│ flatten_9 (Flatten)             │ (None, 1500)           │             0 │
├─────────────────────────────────┼────────────────────────┼───────────────┤
│ dense_29 (Dense)                │ (None, 1)              │         1,501 │
└─────────────────────────────────┴────────────────────────┴───────────────┘
 Total params: 13,601 (53.13 KB)
 Trainable params: 13,601 (53.13 KB)
 Non-trainable params: 0 (0.00 B)
Model: "sequential_10"
┏━━━━━━━━━━━━━━━━━━━━━━━━━━━━━━━━━┳━━━━━━━━━━━━━━━━━━━━━━━━┳━━━━━━━━━━━━━━━┓
┃ Layer (type)                    ┃ Output Shape           ┃       Param # ┃
┡━━━━━━━━━━━━━━━━━━━━━━━━━━━━━━━━━╇━━━━━━━━━━━━━━━━━━━━━━━━╇━━━━━━━━━━━━━━━┩
│ dense_30 (Dense)                │ (None, 3, 5, 100)      │         2,000 │
├─────────────────────────────────┼────────────────────────┼───────────────┤
│ dense_31 (Dense)                │ (None, 3, 5, 100)      │        10,100 │
├─────────────────────────────────┼────────────────────────┼───────────────┤
│ flatten_10 (Flatten)            │ (None, 1500)           │             0 │
├─────────────────────────────────┼────────────────────────┼───────────────┤
│ dense_32 (Dense)                │ (None, 1)              │         1,501 │
└─────────────────────────────────┴────────────────────────┴───────────────┘
 Total params: 13,601 (53.13 KB)
 Trainable params: 13,601 (53.13 KB)
 Non-trainable params: 0 (0.00 B)
Model: "sequential_11"
┏━━━━━━━━━━━━━━━━━━━━━━━━━━━━━━━━━┳━━━━━━━━━━━━━━━━━━━━━━━━┳━━━━━━━━━━━━━━━┓
┃ Layer (type)                    ┃ Output Shape           ┃       Param # ┃
┡━━━━━━━━━━━━━━━━━━━━━━━━━━━━━━━━━╇━━━━━━━━━━━━━━━━━━━━━━━━╇━━━━━━━━━━━━━━━┩
│ dense_33 (Dense)                │ (None, 9, 7, 100)      │         1,900 │
├─────────────────────────────────┼────────────────────────┼───────────────┤
│ dense_34 (Dense)                │ (None, 9, 7, 100)      │        10,100 │
├─────────────────────────────────┼────────────────────────┼───────────────┤
│ flatten_11 (Flatten)            │ (None, 6300)           │             0 │
├─────────────────────────────────┼────────────────────────┼───────────────┤
│ dense_35 (Dense)                │ (None, 1)              │         6,301 │
└─────────────────────────────────┴────────────────────────┴───────────────┘
 Total params: 18,301 (71.49 KB)
 Trainable params: 18,301 (71.49 KB)
 Non-trainable params: 0 (0.00 B)
Model: "sequential_12"
┏━━━━━━━━━━━━━━━━━━━━━━━━━━━━━━━━━┳━━━━━━━━━━━━━━━━━━━━━━━━┳━━━━━━━━━━━━━━━┓
┃ Layer (type)                    ┃ Output Shape           ┃       Param # ┃
┡━━━━━━━━━━━━━━━━━━━━━━━━━━━━━━━━━╇━━━━━━━━━━━━━━━━━━━━━━━━╇━━━━━━━━━━━━━━━┩
│ dense_36 (Dense)                │ (None, 100)            │         1,500 │
├─────────────────────────────────┼────────────────────────┼───────────────┤
│ dense_37 (Dense)                │ (None, 100)            │        10,100 │
├─────────────────────────────────┼────────────────────────┼───────────────┤
│ flatten_12 (Flatten)            │ (None, 100)            │             0 │
├─────────────────────────────────┼────────────────────────┼───────────────┤
│ dense_38 (Dense)                │ (None, 1)              │           101 │
└─────────────────────────────────┴────────────────────────┴───────────────┘
 Total params: 11,701 (45.71 KB)
 Trainable params: 11,701 (45.71 KB)
 Non-trainable params: 0 (0.00 B)
Model: "sequential_13"
┏━━━━━━━━━━━━━━━━━━━━━━━━━━━━━━━━━┳━━━━━━━━━━━━━━━━━━━━━━━━┳━━━━━━━━━━━━━━━┓
┃ Layer (type)                    ┃ Output Shape           ┃       Param # ┃
┡━━━━━━━━━━━━━━━━━━━━━━━━━━━━━━━━━╇━━━━━━━━━━━━━━━━━━━━━━━━╇━━━━━━━━━━━━━━━┩
│ dense_39 (Dense)                │ (None, 9, 100)         │           300 │
├─────────────────────────────────┼────────────────────────┼───────────────┤
│ dense_40 (Dense)                │ (None, 9, 100)         │        10,100 │
├─────────────────────────────────┼────────────────────────┼───────────────┤
│ flatten_13 (Flatten)            │ (None, 900)            │             0 │
├─────────────────────────────────┼────────────────────────┼───────────────┤
│ dense_41 (Dense)                │ (None, 1)              │           901 │
└─────────────────────────────────┴────────────────────────┴───────────────┘
 Total params: 11,301 (44.14 KB)
 Trainable params: 11,301 (44.14 KB)
 Non-trainable params: 0 (0.00 B)
Model: "sequential_14"
┏━━━━━━━━━━━━━━━━━━━━━━━━━━━━━━━━━┳━━━━━━━━━━━━━━━━━━━━━━━━┳━━━━━━━━━━━━━━━┓
┃ Layer (type)                    ┃ Output Shape           ┃       Param # ┃
┡━━━━━━━━━━━━━━━━━━━━━━━━━━━━━━━━━╇━━━━━━━━━━━━━━━━━━━━━━━━╇━━━━━━━━━━━━━━━┩
│ dense_42 (Dense)                │ (None, 7, 12, 100)     │           900 │
├─────────────────────────────────┼────────────────────────┼───────────────┤
│ dense_43 (Dense)                │ (None, 7, 12, 100)     │        10,100 │
├─────────────────────────────────┼────────────────────────┼───────────────┤
│ flatten_14 (Flatten)            │ (None, 8400)           │             0 │
├─────────────────────────────────┼────────────────────────┼───────────────┤
│ dense_44 (Dense)                │ (None, 1)              │         8,401 │
└─────────────────────────────────┴────────────────────────┴───────────────┘
 Total params: 19,401 (75.79 KB)
 Trainable params: 19,401 (75.79 KB)
 Non-trainable params: 0 (0.00 B)
Model: "sequential_15"
┏━━━━━━━━━━━━━━━━━━━━━━━━━━━━━━━━━┳━━━━━━━━━━━━━━━━━━━━━━━━┳━━━━━━━━━━━━━━━┓
┃ Layer (type)                    ┃ Output Shape           ┃       Param # ┃
┡━━━━━━━━━━━━━━━━━━━━━━━━━━━━━━━━━╇━━━━━━━━━━━━━━━━━━━━━━━━╇━━━━━━━━━━━━━━━┩
│ dense_45 (Dense)                │ (None, 3, 14, 100)     │         1,800 │
├─────────────────────────────────┼────────────────────────┼───────────────┤
│ dense_46 (Dense)                │ (None, 3, 14, 100)     │        10,100 │
├─────────────────────────────────┼────────────────────────┼───────────────┤
│ flatten_15 (Flatten)            │ (None, 4200)           │             0 │
├─────────────────────────────────┼────────────────────────┼───────────────┤
│ dense_47 (Dense)                │ (None, 1)              │         4,201 │
└─────────────────────────────────┴────────────────────────┴───────────────┘
 Total params: 16,101 (62.89 KB)
 Trainable params: 16,101 (62.89 KB)
 Non-trainable params: 0 (0.00 B)
Model: "sequential_16"
┏━━━━━━━━━━━━━━━━━━━━━━━━━━━━━━━━━┳━━━━━━━━━━━━━━━━━━━━━━━━┳━━━━━━━━━━━━━━━┓
┃ Layer (type)                    ┃ Output Shape           ┃       Param # ┃
┡━━━━━━━━━━━━━━━━━━━━━━━━━━━━━━━━━╇━━━━━━━━━━━━━━━━━━━━━━━━╇━━━━━━━━━━━━━━━┩
│ dense_48 (Dense)                │ (None, 8, 100)         │           500 │
├─────────────────────────────────┼────────────────────────┼───────────────┤
│ dense_49 (Dense)                │ (None, 8, 100)         │        10,100 │
├─────────────────────────────────┼────────────────────────┼───────────────┤
│ flatten_16 (Flatten)            │ (None, 800)            │             0 │
├─────────────────────────────────┼────────────────────────┼───────────────┤
│ dense_50 (Dense)                │ (None, 1)              │           801 │
└─────────────────────────────────┴────────────────────────┴───────────────┘
 Total params: 11,401 (44.54 KB)
 Trainable params: 11,401 (44.54 KB)
 Non-trainable params: 0 (0.00 B)
Model: "sequential_17"
┏━━━━━━━━━━━━━━━━━━━━━━━━━━━━━━━━━┳━━━━━━━━━━━━━━━━━━━━━━━━┳━━━━━━━━━━━━━━━┓
┃ Layer (type)                    ┃ Output Shape           ┃       Param # ┃
┡━━━━━━━━━━━━━━━━━━━━━━━━━━━━━━━━━╇━━━━━━━━━━━━━━━━━━━━━━━━╇━━━━━━━━━━━━━━━┩
│ dense_51 (Dense)                │ (None, 6, 100)         │         1,100 │
├─────────────────────────────────┼────────────────────────┼───────────────┤
│ dense_52 (Dense)                │ (None, 6, 100)         │        10,100 │
├─────────────────────────────────┼────────────────────────┼───────────────┤
│ flatten_17 (Flatten)            │ (None, 600)            │             0 │
├─────────────────────────────────┼────────────────────────┼───────────────┤
│ dense_53 (Dense)                │ (None, 1)              │           601 │
└─────────────────────────────────┴────────────────────────┴───────────────┘
 Total params: 11,801 (46.10 KB)
 Trainable params: 11,801 (46.10 KB)
 Non-trainable params: 0 (0.00 B)
Model: "sequential_18"
┏━━━━━━━━━━━━━━━━━━━━━━━━━━━━━━━━━┳━━━━━━━━━━━━━━━━━━━━━━━━┳━━━━━━━━━━━━━━━┓
┃ Layer (type)                    ┃ Output Shape           ┃       Param # ┃
┡━━━━━━━━━━━━━━━━━━━━━━━━━━━━━━━━━╇━━━━━━━━━━━━━━━━━━━━━━━━╇━━━━━━━━━━━━━━━┩
│ dense_54 (Dense)                │ (None, 18, 100)        │         1,300 │
├─────────────────────────────────┼────────────────────────┼───────────────┤
│ dense_55 (Dense)                │ (None, 18, 100)        │        10,100 │
├─────────────────────────────────┼────────────────────────┼───────────────┤
│ flatten_18 (Flatten)            │ (None, 1800)           │             0 │
├─────────────────────────────────┼────────────────────────┼───────────────┤
│ dense_56 (Dense)                │ (None, 1)              │         1,801 │
└─────────────────────────────────┴────────────────────────┴───────────────┘
 Total params: 13,201 (51.57 KB)
 Trainable params: 13,201 (51.57 KB)
 Non-trainable params: 0 (0.00 B)
Model: "sequential_19"
┏━━━━━━━━━━━━━━━━━━━━━━━━━━━━━━━━━┳━━━━━━━━━━━━━━━━━━━━━━━━┳━━━━━━━━━━━━━━━┓
┃ Layer (type)                    ┃ Output Shape           ┃       Param # ┃
┡━━━━━━━━━━━━━━━━━━━━━━━━━━━━━━━━━╇━━━━━━━━━━━━━━━━━━━━━━━━╇━━━━━━━━━━━━━━━┩
│ dense_57 (Dense)                │ (None, 10, 100)        │           500 │
├─────────────────────────────────┼────────────────────────┼───────────────┤
│ dense_58 (Dense)                │ (None, 10, 100)        │        10,100 │
├─────────────────────────────────┼────────────────────────┼───────────────┤
│ flatten_19 (Flatten)            │ (None, 1000)           │             0 │
├─────────────────────────────────┼────────────────────────┼───────────────┤
│ dense_59 (Dense)                │ (None, 1)              │         1,001 │
└─────────────────────────────────┴────────────────────────┴───────────────┘
 Total params: 11,601 (45.32 KB)
 Trainable params: 11,601 (45.32 KB)
 Non-trainable params: 0 (0.00 B)
Model: "sequential_20"
┏━━━━━━━━━━━━━━━━━━━━━━━━━━━━━━━━━┳━━━━━━━━━━━━━━━━━━━━━━━━┳━━━━━━━━━━━━━━━┓
┃ Layer (type)                    ┃ Output Shape           ┃       Param # ┃
┡━━━━━━━━━━━━━━━━━━━━━━━━━━━━━━━━━╇━━━━━━━━━━━━━━━━━━━━━━━━╇━━━━━━━━━━━━━━━┩
│ dense_60 (Dense)                │ (None, 16, 100)        │         1,600 │
├─────────────────────────────────┼────────────────────────┼───────────────┤
│ dense_61 (Dense)                │ (None, 16, 100)        │        10,100 │
├─────────────────────────────────┼────────────────────────┼───────────────┤
│ flatten_20 (Flatten)            │ (None, 1600)           │             0 │
├─────────────────────────────────┼────────────────────────┼───────────────┤
│ dense_62 (Dense)                │ (None, 1)              │         1,601 │
└─────────────────────────────────┴────────────────────────┴───────────────┘
 Total params: 13,301 (51.96 KB)
 Trainable params: 13,301 (51.96 KB)
 Non-trainable params: 0 (0.00 B)
Model: "sequential_21"
┏━━━━━━━━━━━━━━━━━━━━━━━━━━━━━━━━━┳━━━━━━━━━━━━━━━━━━━━━━━━┳━━━━━━━━━━━━━━━┓
┃ Layer (type)                    ┃ Output Shape           ┃       Param # ┃
┡━━━━━━━━━━━━━━━━━━━━━━━━━━━━━━━━━╇━━━━━━━━━━━━━━━━━━━━━━━━╇━━━━━━━━━━━━━━━┩
│ dense_63 (Dense)                │ (None, 8, 100)         │         1,700 │
├─────────────────────────────────┼────────────────────────┼───────────────┤
│ dense_64 (Dense)                │ (None, 8, 100)         │        10,100 │
├─────────────────────────────────┼────────────────────────┼───────────────┤
│ flatten_21 (Flatten)            │ (None, 800)            │             0 │
├─────────────────────────────────┼────────────────────────┼───────────────┤
│ dense_65 (Dense)                │ (None, 1)              │           801 │
└─────────────────────────────────┴────────────────────────┴───────────────┘
 Total params: 12,601 (49.22 KB)
 Trainable params: 12,601 (49.22 KB)
 Non-trainable params: 0 (0.00 B)
Model: "sequential_22"
┏━━━━━━━━━━━━━━━━━━━━━━━━━━━━━━━━━┳━━━━━━━━━━━━━━━━━━━━━━━━┳━━━━━━━━━━━━━━━┓
┃ Layer (type)                    ┃ Output Shape           ┃       Param # ┃
┡━━━━━━━━━━━━━━━━━━━━━━━━━━━━━━━━━╇━━━━━━━━━━━━━━━━━━━━━━━━╇━━━━━━━━━━━━━━━┩
│ dense_66 (Dense)                │ (None, 100)            │         1,900 │
├─────────────────────────────────┼────────────────────────┼───────────────┤
│ dense_67 (Dense)                │ (None, 100)            │        10,100 │
├─────────────────────────────────┼────────────────────────┼───────────────┤
│ flatten_22 (Flatten)            │ (None, 100)            │             0 │
├─────────────────────────────────┼────────────────────────┼───────────────┤
│ dense_68 (Dense)                │ (None, 1)              │           101 │
└─────────────────────────────────┴────────────────────────┴───────────────┘
 Total params: 12,101 (47.27 KB)
 Trainable params: 12,101 (47.27 KB)
 Non-trainable params: 0 (0.00 B)
Model: "sequential_23"
┏━━━━━━━━━━━━━━━━━━━━━━━━━━━━━━━━━┳━━━━━━━━━━━━━━━━━━━━━━━━┳━━━━━━━━━━━━━━━┓
┃ Layer (type)                    ┃ Output Shape           ┃       Param # ┃
┡━━━━━━━━━━━━━━━━━━━━━━━━━━━━━━━━━╇━━━━━━━━━━━━━━━━━━━━━━━━╇━━━━━━━━━━━━━━━┩
│ dense_69 (Dense)                │ (None, 13, 9, 100)     │         1,600 │
├─────────────────────────────────┼────────────────────────┼───────────────┤
│ dense_70 (Dense)                │ (None, 13, 9, 100)     │        10,100 │
├─────────────────────────────────┼────────────────────────┼───────────────┤
│ flatten_23 (Flatten)            │ (None, 11700)          │             0 │
├─────────────────────────────────┼────────────────────────┼───────────────┤
│ dense_71 (Dense)                │ (None, 1)              │        11,701 │
└─────────────────────────────────┴────────────────────────┴───────────────┘
 Total params: 23,401 (91.41 KB)
 Trainable params: 23,401 (91.41 KB)
 Non-trainable params: 0 (0.00 B)
Model: "sequential_24"
┏━━━━━━━━━━━━━━━━━━━━━━━━━━━━━━━━━┳━━━━━━━━━━━━━━━━━━━━━━━━┳━━━━━━━━━━━━━━━┓
┃ Layer (type)                    ┃ Output Shape           ┃       Param # ┃
┡━━━━━━━━━━━━━━━━━━━━━━━━━━━━━━━━━╇━━━━━━━━━━━━━━━━━━━━━━━━╇━━━━━━━━━━━━━━━┩
│ dense_72 (Dense)                │ (None, 100)            │           200 │
├─────────────────────────────────┼────────────────────────┼───────────────┤
│ dense_73 (Dense)                │ (None, 100)            │        10,100 │
├─────────────────────────────────┼────────────────────────┼───────────────┤
│ flatten_24 (Flatten)            │ (None, 100)            │             0 │
├─────────────────────────────────┼────────────────────────┼───────────────┤
│ dense_74 (Dense)                │ (None, 1)              │           101 │
└─────────────────────────────────┴────────────────────────┴───────────────┘
 Total params: 10,401 (40.63 KB)
 Trainable params: 10,401 (40.63 KB)
 Non-trainable params: 0 (0.00 B)
Model: "sequential_25"
┏━━━━━━━━━━━━━━━━━━━━━━━━━━━━━━━━━┳━━━━━━━━━━━━━━━━━━━━━━━━┳━━━━━━━━━━━━━━━┓
┃ Layer (type)                    ┃ Output Shape           ┃       Param # ┃
┡━━━━━━━━━━━━━━━━━━━━━━━━━━━━━━━━━╇━━━━━━━━━━━━━━━━━━━━━━━━╇━━━━━━━━━━━━━━━┩
│ dense_75 (Dense)                │ (None, 100)            │           800 │
├─────────────────────────────────┼────────────────────────┼───────────────┤
│ dense_76 (Dense)                │ (None, 100)            │        10,100 │
├─────────────────────────────────┼────────────────────────┼───────────────┤
│ flatten_25 (Flatten)            │ (None, 100)            │             0 │
├─────────────────────────────────┼────────────────────────┼───────────────┤
│ dense_77 (Dense)                │ (None, 1)              │           101 │
└─────────────────────────────────┴────────────────────────┴───────────────┘
 Total params: 11,001 (42.97 KB)
 Trainable params: 11,001 (42.97 KB)
 Non-trainable params: 0 (0.00 B)
Model: "sequential_26"
┏━━━━━━━━━━━━━━━━━━━━━━━━━━━━━━━━━┳━━━━━━━━━━━━━━━━━━━━━━━━┳━━━━━━━━━━━━━━━┓
┃ Layer (type)                    ┃ Output Shape           ┃       Param # ┃
┡━━━━━━━━━━━━━━━━━━━━━━━━━━━━━━━━━╇━━━━━━━━━━━━━━━━━━━━━━━━╇━━━━━━━━━━━━━━━┩
│ dense_78 (Dense)                │ (None, 100)            │           200 │
├─────────────────────────────────┼────────────────────────┼───────────────┤
│ dense_79 (Dense)                │ (None, 100)            │        10,100 │
├─────────────────────────────────┼────────────────────────┼───────────────┤
│ flatten_26 (Flatten)            │ (None, 100)            │             0 │
├─────────────────────────────────┼────────────────────────┼───────────────┤
│ dense_80 (Dense)                │ (None, 1)              │           101 │
└─────────────────────────────────┴────────────────────────┴───────────────┘
 Total params: 10,401 (40.63 KB)
 Trainable params: 10,401 (40.63 KB)
 Non-trainable params: 0 (0.00 B)
Model: "sequential_27"
┏━━━━━━━━━━━━━━━━━━━━━━━━━━━━━━━━━┳━━━━━━━━━━━━━━━━━━━━━━━━┳━━━━━━━━━━━━━━━┓
┃ Layer (type)                    ┃ Output Shape           ┃       Param # ┃
┡━━━━━━━━━━━━━━━━━━━━━━━━━━━━━━━━━╇━━━━━━━━━━━━━━━━━━━━━━━━╇━━━━━━━━━━━━━━━┩
│ dense_81 (Dense)                │ (None, 11, 19, 100)    │         1,800 │
├─────────────────────────────────┼────────────────────────┼───────────────┤
│ dense_82 (Dense)                │ (None, 11, 19, 100)    │        10,100 │
├─────────────────────────────────┼────────────────────────┼───────────────┤
│ flatten_27 (Flatten)            │ (None, 20900)          │             0 │
├─────────────────────────────────┼────────────────────────┼───────────────┤
│ dense_83 (Dense)                │ (None, 1)              │        20,901 │
└─────────────────────────────────┴────────────────────────┴───────────────┘
 Total params: 32,801 (128.13 KB)
 Trainable params: 32,801 (128.13 KB)
 Non-trainable params: 0 (0.00 B)
Model: "sequential_28"
┏━━━━━━━━━━━━━━━━━━━━━━━━━━━━━━━━━┳━━━━━━━━━━━━━━━━━━━━━━━━┳━━━━━━━━━━━━━━━┓
┃ Layer (type)                    ┃ Output Shape           ┃       Param # ┃
┡━━━━━━━━━━━━━━━━━━━━━━━━━━━━━━━━━╇━━━━━━━━━━━━━━━━━━━━━━━━╇━━━━━━━━━━━━━━━┩
│ dense_84 (Dense)                │ (None, 3, 1, 100)      │           600 │
├─────────────────────────────────┼────────────────────────┼───────────────┤
│ dense_85 (Dense)                │ (None, 3, 1, 100)      │        10,100 │
├─────────────────────────────────┼────────────────────────┼───────────────┤
│ flatten_28 (Flatten)            │ (None, 300)            │             0 │
├─────────────────────────────────┼────────────────────────┼───────────────┤
│ dense_86 (Dense)                │ (None, 1)              │           301 │
└─────────────────────────────────┴────────────────────────┴───────────────┘
 Total params: 11,001 (42.97 KB)
 Trainable params: 11,001 (42.97 KB)
 Non-trainable params: 0 (0.00 B)
Model: "sequential_29"
┏━━━━━━━━━━━━━━━━━━━━━━━━━━━━━━━━━┳━━━━━━━━━━━━━━━━━━━━━━━━┳━━━━━━━━━━━━━━━┓
┃ Layer (type)                    ┃ Output Shape           ┃       Param # ┃
┡━━━━━━━━━━━━━━━━━━━━━━━━━━━━━━━━━╇━━━━━━━━━━━━━━━━━━━━━━━━╇━━━━━━━━━━━━━━━┩
│ dense_87 (Dense)                │ (None, 7, 100)         │         1,000 │
├─────────────────────────────────┼────────────────────────┼───────────────┤
│ dense_88 (Dense)                │ (None, 7, 100)         │        10,100 │
├─────────────────────────────────┼────────────────────────┼───────────────┤
│ flatten_29 (Flatten)            │ (None, 700)            │             0 │
├─────────────────────────────────┼────────────────────────┼───────────────┤
│ dense_89 (Dense)                │ (None, 1)              │           701 │
└─────────────────────────────────┴────────────────────────┴───────────────┘
 Total params: 11,801 (46.10 KB)
 Trainable params: 11,801 (46.10 KB)
 Non-trainable params: 0 (0.00 B)
Model: "sequential_30"
┏━━━━━━━━━━━━━━━━━━━━━━━━━━━━━━━━━┳━━━━━━━━━━━━━━━━━━━━━━━━┳━━━━━━━━━━━━━━━┓
┃ Layer (type)                    ┃ Output Shape           ┃       Param # ┃
┡━━━━━━━━━━━━━━━━━━━━━━━━━━━━━━━━━╇━━━━━━━━━━━━━━━━━━━━━━━━╇━━━━━━━━━━━━━━━┩
│ dense_90 (Dense)                │ (None, 9, 8, 100)      │         1,300 │
├─────────────────────────────────┼────────────────────────┼───────────────┤
│ dense_91 (Dense)                │ (None, 9, 8, 100)      │        10,100 │
├─────────────────────────────────┼────────────────────────┼───────────────┤
│ flatten_30 (Flatten)            │ (None, 7200)           │             0 │
├─────────────────────────────────┼────────────────────────┼───────────────┤
│ dense_92 (Dense)                │ (None, 1)              │         7,201 │
└─────────────────────────────────┴────────────────────────┴───────────────┘
 Total params: 18,601 (72.66 KB)
 Trainable params: 18,601 (72.66 KB)
 Non-trainable params: 0 (0.00 B)
Model: "sequential_31"
┏━━━━━━━━━━━━━━━━━━━━━━━━━━━━━━━━━┳━━━━━━━━━━━━━━━━━━━━━━━━┳━━━━━━━━━━━━━━━┓
┃ Layer (type)                    ┃ Output Shape           ┃       Param # ┃
┡━━━━━━━━━━━━━━━━━━━━━━━━━━━━━━━━━╇━━━━━━━━━━━━━━━━━━━━━━━━╇━━━━━━━━━━━━━━━┩
│ dense_93 (Dense)                │ (None, 1, 100)         │         1,700 │
├─────────────────────────────────┼────────────────────────┼───────────────┤
│ dense_94 (Dense)                │ (None, 1, 100)         │        10,100 │
├─────────────────────────────────┼────────────────────────┼───────────────┤
│ flatten_31 (Flatten)            │ (None, 100)            │             0 │
├─────────────────────────────────┼────────────────────────┼───────────────┤
│ dense_95 (Dense)                │ (None, 1)              │           101 │
└─────────────────────────────────┴────────────────────────┴───────────────┘
 Total params: 11,901 (46.49 KB)
 Trainable params: 11,901 (46.49 KB)
 Non-trainable params: 0 (0.00 B)
Model: "sequential_32"
┏━━━━━━━━━━━━━━━━━━━━━━━━━━━━━━━━━┳━━━━━━━━━━━━━━━━━━━━━━━━┳━━━━━━━━━━━━━━━┓
┃ Layer (type)                    ┃ Output Shape           ┃       Param # ┃
┡━━━━━━━━━━━━━━━━━━━━━━━━━━━━━━━━━╇━━━━━━━━━━━━━━━━━━━━━━━━╇━━━━━━━━━━━━━━━┩
│ dense_96 (Dense)                │ (None, 5, 3, 100)      │         1,300 │
├─────────────────────────────────┼────────────────────────┼───────────────┤
│ dense_97 (Dense)                │ (None, 5, 3, 100)      │        10,100 │
├─────────────────────────────────┼────────────────────────┼───────────────┤
│ flatten_32 (Flatten)            │ (None, 1500)           │             0 │
├─────────────────────────────────┼────────────────────────┼───────────────┤
│ dense_98 (Dense)                │ (None, 1)              │         1,501 │
└─────────────────────────────────┴────────────────────────┴───────────────┘
 Total params: 12,901 (50.39 KB)
 Trainable params: 12,901 (50.39 KB)
 Non-trainable params: 0 (0.00 B)
Model: "sequential_33"
┏━━━━━━━━━━━━━━━━━━━━━━━━━━━━━━━━━┳━━━━━━━━━━━━━━━━━━━━━━━━┳━━━━━━━━━━━━━━━┓
┃ Layer (type)                    ┃ Output Shape           ┃       Param # ┃
┡━━━━━━━━━━━━━━━━━━━━━━━━━━━━━━━━━╇━━━━━━━━━━━━━━━━━━━━━━━━╇━━━━━━━━━━━━━━━┩
│ dense_99 (Dense)                │ (None, 3, 100)         │           200 │
├─────────────────────────────────┼────────────────────────┼───────────────┤
│ dense_100 (Dense)               │ (None, 3, 100)         │        10,100 │
├─────────────────────────────────┼────────────────────────┼───────────────┤
│ flatten_33 (Flatten)            │ (None, 300)            │             0 │
├─────────────────────────────────┼────────────────────────┼───────────────┤
│ dense_101 (Dense)               │ (None, 1)              │           301 │
└─────────────────────────────────┴────────────────────────┴───────────────┘
 Total params: 10,601 (41.41 KB)
 Trainable params: 10,601 (41.41 KB)
 Non-trainable params: 0 (0.00 B)
Model: "sequential_34"
┏━━━━━━━━━━━━━━━━━━━━━━━━━━━━━━━━━┳━━━━━━━━━━━━━━━━━━━━━━━━┳━━━━━━━━━━━━━━━┓
┃ Layer (type)                    ┃ Output Shape           ┃       Param # ┃
┡━━━━━━━━━━━━━━━━━━━━━━━━━━━━━━━━━╇━━━━━━━━━━━━━━━━━━━━━━━━╇━━━━━━━━━━━━━━━┩
│ dense_102 (Dense)               │ (None, 5, 15, 100)     │         1,500 │
├─────────────────────────────────┼────────────────────────┼───────────────┤
│ dense_103 (Dense)               │ (None, 5, 15, 100)     │        10,100 │
├─────────────────────────────────┼────────────────────────┼───────────────┤
│ flatten_34 (Flatten)            │ (None, 7500)           │             0 │
├─────────────────────────────────┼────────────────────────┼───────────────┤
│ dense_104 (Dense)               │ (None, 1)              │         7,501 │
└─────────────────────────────────┴────────────────────────┴───────────────┘
 Total params: 19,101 (74.61 KB)
 Trainable params: 19,101 (74.61 KB)
 Non-trainable params: 0 (0.00 B)
Model: "sequential_35"
┏━━━━━━━━━━━━━━━━━━━━━━━━━━━━━━━━━┳━━━━━━━━━━━━━━━━━━━━━━━━┳━━━━━━━━━━━━━━━┓
┃ Layer (type)                    ┃ Output Shape           ┃       Param # ┃
┡━━━━━━━━━━━━━━━━━━━━━━━━━━━━━━━━━╇━━━━━━━━━━━━━━━━━━━━━━━━╇━━━━━━━━━━━━━━━┩
│ dense_105 (Dense)               │ (None, 1, 5, 100)      │         1,500 │
├─────────────────────────────────┼────────────────────────┼───────────────┤
│ dense_106 (Dense)               │ (None, 1, 5, 100)      │        10,100 │
├─────────────────────────────────┼────────────────────────┼───────────────┤
│ flatten_35 (Flatten)            │ (None, 500)            │             0 │
├─────────────────────────────────┼────────────────────────┼───────────────┤
│ dense_107 (Dense)               │ (None, 1)              │           501 │
└─────────────────────────────────┴────────────────────────┴───────────────┘
 Total params: 12,101 (47.27 KB)
 Trainable params: 12,101 (47.27 KB)
 Non-trainable params: 0 (0.00 B)
Model: "sequential_36"
┏━━━━━━━━━━━━━━━━━━━━━━━━━━━━━━━━━┳━━━━━━━━━━━━━━━━━━━━━━━━┳━━━━━━━━━━━━━━━┓
┃ Layer (type)                    ┃ Output Shape           ┃       Param # ┃
┡━━━━━━━━━━━━━━━━━━━━━━━━━━━━━━━━━╇━━━━━━━━━━━━━━━━━━━━━━━━╇━━━━━━━━━━━━━━━┩
│ dense_108 (Dense)               │ (None, 9, 15, 100)     │         1,600 │
├─────────────────────────────────┼────────────────────────┼───────────────┤
│ dense_109 (Dense)               │ (None, 9, 15, 100)     │        10,100 │
├─────────────────────────────────┼────────────────────────┼───────────────┤
│ flatten_36 (Flatten)            │ (None, 13500)          │             0 │
├─────────────────────────────────┼────────────────────────┼───────────────┤
│ dense_110 (Dense)               │ (None, 1)              │        13,501 │
└─────────────────────────────────┴────────────────────────┴───────────────┘
 Total params: 25,201 (98.44 KB)
 Trainable params: 25,201 (98.44 KB)
 Non-trainable params: 0 (0.00 B)
Model: "sequential_37"
┏━━━━━━━━━━━━━━━━━━━━━━━━━━━━━━━━━┳━━━━━━━━━━━━━━━━━━━━━━━━┳━━━━━━━━━━━━━━━┓
┃ Layer (type)                    ┃ Output Shape           ┃       Param # ┃
┡━━━━━━━━━━━━━━━━━━━━━━━━━━━━━━━━━╇━━━━━━━━━━━━━━━━━━━━━━━━╇━━━━━━━━━━━━━━━┩
│ dense_111 (Dense)               │ (None, 10, 100)        │         1,400 │
├─────────────────────────────────┼────────────────────────┼───────────────┤
│ dense_112 (Dense)               │ (None, 10, 100)        │        10,100 │
├─────────────────────────────────┼────────────────────────┼───────────────┤
│ flatten_37 (Flatten)            │ (None, 1000)           │             0 │
├─────────────────────────────────┼────────────────────────┼───────────────┤
│ dense_113 (Dense)               │ (None, 1)              │         1,001 │
└─────────────────────────────────┴────────────────────────┴───────────────┘
 Total params: 12,501 (48.83 KB)
 Trainable params: 12,501 (48.83 KB)
 Non-trainable params: 0 (0.00 B)
Model: "sequential_38"
┏━━━━━━━━━━━━━━━━━━━━━━━━━━━━━━━━━┳━━━━━━━━━━━━━━━━━━━━━━━━┳━━━━━━━━━━━━━━━┓
┃ Layer (type)                    ┃ Output Shape           ┃       Param # ┃
┡━━━━━━━━━━━━━━━━━━━━━━━━━━━━━━━━━╇━━━━━━━━━━━━━━━━━━━━━━━━╇━━━━━━━━━━━━━━━┩
│ dense_114 (Dense)               │ (None, 7, 17, 100)     │           500 │
├─────────────────────────────────┼────────────────────────┼───────────────┤
│ dense_115 (Dense)               │ (None, 7, 17, 100)     │        10,100 │
├─────────────────────────────────┼────────────────────────┼───────────────┤
│ flatten_38 (Flatten)            │ (None, 11900)          │             0 │
├─────────────────────────────────┼────────────────────────┼───────────────┤
│ dense_116 (Dense)               │ (None, 1)              │        11,901 │
└─────────────────────────────────┴────────────────────────┴───────────────┘
 Total params: 22,501 (87.89 KB)
 Trainable params: 22,501 (87.89 KB)
 Non-trainable params: 0 (0.00 B)
Model: "sequential_39"
┏━━━━━━━━━━━━━━━━━━━━━━━━━━━━━━━━━┳━━━━━━━━━━━━━━━━━━━━━━━━┳━━━━━━━━━━━━━━━┓
┃ Layer (type)                    ┃ Output Shape           ┃       Param # ┃
┡━━━━━━━━━━━━━━━━━━━━━━━━━━━━━━━━━╇━━━━━━━━━━━━━━━━━━━━━━━━╇━━━━━━━━━━━━━━━┩
│ dense_117 (Dense)               │ (None, 5, 100)         │           800 │
├─────────────────────────────────┼────────────────────────┼───────────────┤
│ dense_118 (Dense)               │ (None, 5, 100)         │        10,100 │
├─────────────────────────────────┼────────────────────────┼───────────────┤
│ flatten_39 (Flatten)            │ (None, 500)            │             0 │
├─────────────────────────────────┼────────────────────────┼───────────────┤
│ dense_119 (Dense)               │ (None, 1)              │           501 │
└─────────────────────────────────┴────────────────────────┴───────────────┘
 Total params: 11,401 (44.54 KB)
 Trainable params: 11,401 (44.54 KB)
 Non-trainable params: 0 (0.00 B)
Model: "sequential_40"
┏━━━━━━━━━━━━━━━━━━━━━━━━━━━━━━━━━┳━━━━━━━━━━━━━━━━━━━━━━━━┳━━━━━━━━━━━━━━━┓
┃ Layer (type)                    ┃ Output Shape           ┃       Param # ┃
┡━━━━━━━━━━━━━━━━━━━━━━━━━━━━━━━━━╇━━━━━━━━━━━━━━━━━━━━━━━━╇━━━━━━━━━━━━━━━┩
│ dense_120 (Dense)               │ (None, 100)            │         1,600 │
├─────────────────────────────────┼────────────────────────┼───────────────┤
│ dense_121 (Dense)               │ (None, 100)            │        10,100 │
├─────────────────────────────────┼────────────────────────┼───────────────┤
│ flatten_40 (Flatten)            │ (None, 100)            │             0 │
├─────────────────────────────────┼────────────────────────┼───────────────┤
│ dense_122 (Dense)               │ (None, 1)              │           101 │
└─────────────────────────────────┴────────────────────────┴───────────────┘
 Total params: 11,801 (46.10 KB)
 Trainable params: 11,801 (46.10 KB)
 Non-trainable params: 0 (0.00 B)
Model: "sequential_41"
┏━━━━━━━━━━━━━━━━━━━━━━━━━━━━━━━━━┳━━━━━━━━━━━━━━━━━━━━━━━━┳━━━━━━━━━━━━━━━┓
┃ Layer (type)                    ┃ Output Shape           ┃       Param # ┃
┡━━━━━━━━━━━━━━━━━━━━━━━━━━━━━━━━━╇━━━━━━━━━━━━━━━━━━━━━━━━╇━━━━━━━━━━━━━━━┩
│ dense_123 (Dense)               │ (None, 4, 13, 100)     │           800 │
├─────────────────────────────────┼────────────────────────┼───────────────┤
│ dense_124 (Dense)               │ (None, 4, 13, 100)     │        10,100 │
├─────────────────────────────────┼────────────────────────┼───────────────┤
│ flatten_41 (Flatten)            │ (None, 5200)           │             0 │
├─────────────────────────────────┼────────────────────────┼───────────────┤
│ dense_125 (Dense)               │ (None, 1)              │         5,201 │
└─────────────────────────────────┴────────────────────────┴───────────────┘
 Total params: 16,101 (62.89 KB)
 Trainable params: 16,101 (62.89 KB)
 Non-trainable params: 0 (0.00 B)
Model: "sequential_42"
┏━━━━━━━━━━━━━━━━━━━━━━━━━━━━━━━━━┳━━━━━━━━━━━━━━━━━━━━━━━━┳━━━━━━━━━━━━━━━┓
┃ Layer (type)                    ┃ Output Shape           ┃       Param # ┃
┡━━━━━━━━━━━━━━━━━━━━━━━━━━━━━━━━━╇━━━━━━━━━━━━━━━━━━━━━━━━╇━━━━━━━━━━━━━━━┩
│ dense_126 (Dense)               │ (None, 19, 2, 100)     │         1,100 │
├─────────────────────────────────┼────────────────────────┼───────────────┤
│ dense_127 (Dense)               │ (None, 19, 2, 100)     │        10,100 │
├─────────────────────────────────┼────────────────────────┼───────────────┤
│ flatten_42 (Flatten)            │ (None, 3800)           │             0 │
├─────────────────────────────────┼────────────────────────┼───────────────┤
│ dense_128 (Dense)               │ (None, 1)              │         3,801 │
└─────────────────────────────────┴────────────────────────┴───────────────┘
 Total params: 15,001 (58.60 KB)
 Trainable params: 15,001 (58.60 KB)
 Non-trainable params: 0 (0.00 B)
Model: "sequential_43"
┏━━━━━━━━━━━━━━━━━━━━━━━━━━━━━━━━━┳━━━━━━━━━━━━━━━━━━━━━━━━┳━━━━━━━━━━━━━━━┓
┃ Layer (type)                    ┃ Output Shape           ┃       Param # ┃
┡━━━━━━━━━━━━━━━━━━━━━━━━━━━━━━━━━╇━━━━━━━━━━━━━━━━━━━━━━━━╇━━━━━━━━━━━━━━━┩
│ dense_129 (Dense)               │ (None, 100)            │           700 │
├─────────────────────────────────┼────────────────────────┼───────────────┤
│ dense_130 (Dense)               │ (None, 100)            │        10,100 │
├─────────────────────────────────┼────────────────────────┼───────────────┤
│ flatten_43 (Flatten)            │ (None, 100)            │             0 │
├─────────────────────────────────┼────────────────────────┼───────────────┤
│ dense_131 (Dense)               │ (None, 1)              │           101 │
└─────────────────────────────────┴────────────────────────┴───────────────┘
 Total params: 10,901 (42.58 KB)
 Trainable params: 10,901 (42.58 KB)
 Non-trainable params: 0 (0.00 B)
Model: "sequential_44"
┏━━━━━━━━━━━━━━━━━━━━━━━━━━━━━━━━━┳━━━━━━━━━━━━━━━━━━━━━━━━┳━━━━━━━━━━━━━━━┓
┃ Layer (type)                    ┃ Output Shape           ┃       Param # ┃
┡━━━━━━━━━━━━━━━━━━━━━━━━━━━━━━━━━╇━━━━━━━━━━━━━━━━━━━━━━━━╇━━━━━━━━━━━━━━━┩
│ dense_132 (Dense)               │ (None, 11, 100)        │           800 │
├─────────────────────────────────┼────────────────────────┼───────────────┤
│ dense_133 (Dense)               │ (None, 11, 100)        │        10,100 │
├─────────────────────────────────┼────────────────────────┼───────────────┤
│ flatten_44 (Flatten)            │ (None, 1100)           │             0 │
├─────────────────────────────────┼────────────────────────┼───────────────┤
│ dense_134 (Dense)               │ (None, 1)              │         1,101 │
└─────────────────────────────────┴────────────────────────┴───────────────┘
 Total params: 12,001 (46.88 KB)
 Trainable params: 12,001 (46.88 KB)
 Non-trainable params: 0 (0.00 B)
Model: "sequential_45"
┏━━━━━━━━━━━━━━━━━━━━━━━━━━━━━━━━━┳━━━━━━━━━━━━━━━━━━━━━━━━┳━━━━━━━━━━━━━━━┓
┃ Layer (type)                    ┃ Output Shape           ┃       Param # ┃
┡━━━━━━━━━━━━━━━━━━━━━━━━━━━━━━━━━╇━━━━━━━━━━━━━━━━━━━━━━━━╇━━━━━━━━━━━━━━━┩
│ dense_135 (Dense)               │ (None, 1, 100)         │           200 │
├─────────────────────────────────┼────────────────────────┼───────────────┤
│ dense_136 (Dense)               │ (None, 1, 100)         │        10,100 │
├─────────────────────────────────┼────────────────────────┼───────────────┤
│ flatten_45 (Flatten)            │ (None, 100)            │             0 │
├─────────────────────────────────┼────────────────────────┼───────────────┤
│ dense_137 (Dense)               │ (None, 1)              │           101 │
└─────────────────────────────────┴────────────────────────┴───────────────┘
 Total params: 10,401 (40.63 KB)
 Trainable params: 10,401 (40.63 KB)
 Non-trainable params: 0 (0.00 B)
Model: "sequential_46"
┏━━━━━━━━━━━━━━━━━━━━━━━━━━━━━━━━━┳━━━━━━━━━━━━━━━━━━━━━━━━┳━━━━━━━━━━━━━━━┓
┃ Layer (type)                    ┃ Output Shape           ┃       Param # ┃
┡━━━━━━━━━━━━━━━━━━━━━━━━━━━━━━━━━╇━━━━━━━━━━━━━━━━━━━━━━━━╇━━━━━━━━━━━━━━━┩
│ dense_138 (Dense)               │ (None, 100)            │         1,400 │
├─────────────────────────────────┼────────────────────────┼───────────────┤
│ dense_139 (Dense)               │ (None, 100)            │        10,100 │
├─────────────────────────────────┼────────────────────────┼───────────────┤
│ flatten_46 (Flatten)            │ (None, 100)            │             0 │
├─────────────────────────────────┼────────────────────────┼───────────────┤
│ dense_140 (Dense)               │ (None, 1)              │           101 │
└─────────────────────────────────┴────────────────────────┴───────────────┘
 Total params: 11,601 (45.32 KB)
 Trainable params: 11,601 (45.32 KB)
 Non-trainable params: 0 (0.00 B)
Model: "sequential_47"
┏━━━━━━━━━━━━━━━━━━━━━━━━━━━━━━━━━┳━━━━━━━━━━━━━━━━━━━━━━━━┳━━━━━━━━━━━━━━━┓
┃ Layer (type)                    ┃ Output Shape           ┃       Param # ┃
┡━━━━━━━━━━━━━━━━━━━━━━━━━━━━━━━━━╇━━━━━━━━━━━━━━━━━━━━━━━━╇━━━━━━━━━━━━━━━┩
│ dense_141 (Dense)               │ (None, 100)            │           400 │
├─────────────────────────────────┼────────────────────────┼───────────────┤
│ dense_142 (Dense)               │ (None, 100)            │        10,100 │
├─────────────────────────────────┼────────────────────────┼───────────────┤
│ flatten_47 (Flatten)            │ (None, 100)            │             0 │
├─────────────────────────────────┼────────────────────────┼───────────────┤
│ dense_143 (Dense)               │ (None, 1)              │           101 │
└─────────────────────────────────┴────────────────────────┴───────────────┘
 Total params: 10,601 (41.41 KB)
 Trainable params: 10,601 (41.41 KB)
 Non-trainable params: 0 (0.00 B)
Model: "sequential_48"
┏━━━━━━━━━━━━━━━━━━━━━━━━━━━━━━━━━┳━━━━━━━━━━━━━━━━━━━━━━━━┳━━━━━━━━━━━━━━━┓
┃ Layer (type)                    ┃ Output Shape           ┃       Param # ┃
┡━━━━━━━━━━━━━━━━━━━━━━━━━━━━━━━━━╇━━━━━━━━━━━━━━━━━━━━━━━━╇━━━━━━━━━━━━━━━┩
│ dense_144 (Dense)               │ (None, 6, 8, 100)      │         1,000 │
├─────────────────────────────────┼────────────────────────┼───────────────┤
│ dense_145 (Dense)               │ (None, 6, 8, 100)      │        10,100 │
├─────────────────────────────────┼────────────────────────┼───────────────┤
│ flatten_48 (Flatten)            │ (None, 4800)           │             0 │
├─────────────────────────────────┼────────────────────────┼───────────────┤
│ dense_146 (Dense)               │ (None, 1)              │         4,801 │
└─────────────────────────────────┴────────────────────────┴───────────────┘
 Total params: 15,901 (62.11 KB)
 Trainable params: 15,901 (62.11 KB)
 Non-trainable params: 0 (0.00 B)
Model: "sequential_49"
┏━━━━━━━━━━━━━━━━━━━━━━━━━━━━━━━━━┳━━━━━━━━━━━━━━━━━━━━━━━━┳━━━━━━━━━━━━━━━┓
┃ Layer (type)                    ┃ Output Shape           ┃       Param # ┃
┡━━━━━━━━━━━━━━━━━━━━━━━━━━━━━━━━━╇━━━━━━━━━━━━━━━━━━━━━━━━╇━━━━━━━━━━━━━━━┩
│ dense_147 (Dense)               │ (None, 5, 100)         │           200 │
├─────────────────────────────────┼────────────────────────┼───────────────┤
│ dense_148 (Dense)               │ (None, 5, 100)         │        10,100 │
├─────────────────────────────────┼────────────────────────┼───────────────┤
│ flatten_49 (Flatten)            │ (None, 500)            │             0 │
├─────────────────────────────────┼────────────────────────┼───────────────┤
│ dense_149 (Dense)               │ (None, 1)              │           501 │
└─────────────────────────────────┴────────────────────────┴───────────────┘
 Total params: 10,801 (42.19 KB)
 Trainable params: 10,801 (42.19 KB)
 Non-trainable params: 0 (0.00 B)
Model: "sequential_50"
┏━━━━━━━━━━━━━━━━━━━━━━━━━━━━━━━━━┳━━━━━━━━━━━━━━━━━━━━━━━━┳━━━━━━━━━━━━━━━┓
┃ Layer (type)                    ┃ Output Shape           ┃       Param # ┃
┡━━━━━━━━━━━━━━━━━━━━━━━━━━━━━━━━━╇━━━━━━━━━━━━━━━━━━━━━━━━╇━━━━━━━━━━━━━━━┩
│ dense_150 (Dense)               │ (None, 15, 11, 100)    │           900 │
├─────────────────────────────────┼────────────────────────┼───────────────┤
│ dense_151 (Dense)               │ (None, 15, 11, 100)    │        10,100 │
├─────────────────────────────────┼────────────────────────┼───────────────┤
│ flatten_50 (Flatten)            │ (None, 16500)          │             0 │
├─────────────────────────────────┼────────────────────────┼───────────────┤
│ dense_152 (Dense)               │ (None, 1)              │        16,501 │
└─────────────────────────────────┴────────────────────────┴───────────────┘
 Total params: 27,501 (107.43 KB)
 Trainable params: 27,501 (107.43 KB)
 Non-trainable params: 0 (0.00 B)
Model: "sequential_51"
┏━━━━━━━━━━━━━━━━━━━━━━━━━━━━━━━━━┳━━━━━━━━━━━━━━━━━━━━━━━━┳━━━━━━━━━━━━━━━┓
┃ Layer (type)                    ┃ Output Shape           ┃       Param # ┃
┡━━━━━━━━━━━━━━━━━━━━━━━━━━━━━━━━━╇━━━━━━━━━━━━━━━━━━━━━━━━╇━━━━━━━━━━━━━━━┩
│ dense_153 (Dense)               │ (None, 100)            │           800 │
├─────────────────────────────────┼────────────────────────┼───────────────┤
│ dense_154 (Dense)               │ (None, 100)            │        10,100 │
├─────────────────────────────────┼────────────────────────┼───────────────┤
│ flatten_51 (Flatten)            │ (None, 100)            │             0 │
├─────────────────────────────────┼────────────────────────┼───────────────┤
│ dense_155 (Dense)               │ (None, 1)              │           101 │
└─────────────────────────────────┴────────────────────────┴───────────────┘
 Total params: 11,001 (42.97 KB)
 Trainable params: 11,001 (42.97 KB)
 Non-trainable params: 0 (0.00 B)
Model: "sequential_52"
┏━━━━━━━━━━━━━━━━━━━━━━━━━━━━━━━━━┳━━━━━━━━━━━━━━━━━━━━━━━━┳━━━━━━━━━━━━━━━┓
┃ Layer (type)                    ┃ Output Shape           ┃       Param # ┃
┡━━━━━━━━━━━━━━━━━━━━━━━━━━━━━━━━━╇━━━━━━━━━━━━━━━━━━━━━━━━╇━━━━━━━━━━━━━━━┩
│ dense_156 (Dense)               │ (None, 19, 100)        │         1,200 │
├─────────────────────────────────┼────────────────────────┼───────────────┤
│ dense_157 (Dense)               │ (None, 19, 100)        │        10,100 │
├─────────────────────────────────┼────────────────────────┼───────────────┤
│ flatten_52 (Flatten)            │ (None, 1900)           │             0 │
├─────────────────────────────────┼────────────────────────┼───────────────┤
│ dense_158 (Dense)               │ (None, 1)              │         1,901 │
└─────────────────────────────────┴────────────────────────┴───────────────┘
 Total params: 13,201 (51.57 KB)
 Trainable params: 13,201 (51.57 KB)
 Non-trainable params: 0 (0.00 B)
Model: "sequential_53"
┏━━━━━━━━━━━━━━━━━━━━━━━━━━━━━━━━━┳━━━━━━━━━━━━━━━━━━━━━━━━┳━━━━━━━━━━━━━━━┓
┃ Layer (type)                    ┃ Output Shape           ┃       Param # ┃
┡━━━━━━━━━━━━━━━━━━━━━━━━━━━━━━━━━╇━━━━━━━━━━━━━━━━━━━━━━━━╇━━━━━━━━━━━━━━━┩
│ dense_159 (Dense)               │ (None, 4, 8, 100)      │           400 │
├─────────────────────────────────┼────────────────────────┼───────────────┤
│ dense_160 (Dense)               │ (None, 4, 8, 100)      │        10,100 │
├─────────────────────────────────┼────────────────────────┼───────────────┤
│ flatten_53 (Flatten)            │ (None, 3200)           │             0 │
├─────────────────────────────────┼────────────────────────┼───────────────┤
│ dense_161 (Dense)               │ (None, 1)              │         3,201 │
└─────────────────────────────────┴────────────────────────┴───────────────┘
 Total params: 13,701 (53.52 KB)
 Trainable params: 13,701 (53.52 KB)
 Non-trainable params: 0 (0.00 B)
Model: "sequential_54"
┏━━━━━━━━━━━━━━━━━━━━━━━━━━━━━━━━━┳━━━━━━━━━━━━━━━━━━━━━━━━┳━━━━━━━━━━━━━━━┓
┃ Layer (type)                    ┃ Output Shape           ┃       Param # ┃
┡━━━━━━━━━━━━━━━━━━━━━━━━━━━━━━━━━╇━━━━━━━━━━━━━━━━━━━━━━━━╇━━━━━━━━━━━━━━━┩
│ dense_162 (Dense)               │ (None, 2, 100)         │         1,300 │
├─────────────────────────────────┼────────────────────────┼───────────────┤
│ dense_163 (Dense)               │ (None, 2, 100)         │        10,100 │
├─────────────────────────────────┼────────────────────────┼───────────────┤
│ flatten_54 (Flatten)            │ (None, 200)            │             0 │
├─────────────────────────────────┼────────────────────────┼───────────────┤
│ dense_164 (Dense)               │ (None, 1)              │           201 │
└─────────────────────────────────┴────────────────────────┴───────────────┘
 Total params: 11,601 (45.32 KB)
 Trainable params: 11,601 (45.32 KB)
 Non-trainable params: 0 (0.00 B)
Model: "sequential_55"
┏━━━━━━━━━━━━━━━━━━━━━━━━━━━━━━━━━┳━━━━━━━━━━━━━━━━━━━━━━━━┳━━━━━━━━━━━━━━━┓
┃ Layer (type)                    ┃ Output Shape           ┃       Param # ┃
┡━━━━━━━━━━━━━━━━━━━━━━━━━━━━━━━━━╇━━━━━━━━━━━━━━━━━━━━━━━━╇━━━━━━━━━━━━━━━┩
│ dense_165 (Dense)               │ (None, 6, 100)         │           300 │
├─────────────────────────────────┼────────────────────────┼───────────────┤
│ dense_166 (Dense)               │ (None, 6, 100)         │        10,100 │
├─────────────────────────────────┼────────────────────────┼───────────────┤
│ flatten_55 (Flatten)            │ (None, 600)            │             0 │
├─────────────────────────────────┼────────────────────────┼───────────────┤
│ dense_167 (Dense)               │ (None, 1)              │           601 │
└─────────────────────────────────┴────────────────────────┴───────────────┘
 Total params: 11,001 (42.97 KB)
 Trainable params: 11,001 (42.97 KB)
 Non-trainable params: 0 (0.00 B)
Model: "sequential_56"
┏━━━━━━━━━━━━━━━━━━━━━━━━━━━━━━━━━┳━━━━━━━━━━━━━━━━━━━━━━━━┳━━━━━━━━━━━━━━━┓
┃ Layer (type)                    ┃ Output Shape           ┃       Param # ┃
┡━━━━━━━━━━━━━━━━━━━━━━━━━━━━━━━━━╇━━━━━━━━━━━━━━━━━━━━━━━━╇━━━━━━━━━━━━━━━┩
│ dense_168 (Dense)               │ (None, 100)            │           200 │
├─────────────────────────────────┼────────────────────────┼───────────────┤
│ dense_169 (Dense)               │ (None, 100)            │        10,100 │
├─────────────────────────────────┼────────────────────────┼───────────────┤
│ flatten_56 (Flatten)            │ (None, 100)            │             0 │
├─────────────────────────────────┼────────────────────────┼───────────────┤
│ dense_170 (Dense)               │ (None, 1)              │           101 │
└─────────────────────────────────┴────────────────────────┴───────────────┘
 Total params: 10,401 (40.63 KB)
 Trainable params: 10,401 (40.63 KB)
 Non-trainable params: 0 (0.00 B)
Model: "sequential_57"
┏━━━━━━━━━━━━━━━━━━━━━━━━━━━━━━━━━┳━━━━━━━━━━━━━━━━━━━━━━━━┳━━━━━━━━━━━━━━━┓
┃ Layer (type)                    ┃ Output Shape           ┃       Param # ┃
┡━━━━━━━━━━━━━━━━━━━━━━━━━━━━━━━━━╇━━━━━━━━━━━━━━━━━━━━━━━━╇━━━━━━━━━━━━━━━┩
│ dense_171 (Dense)               │ (None, 12, 100)        │         1,800 │
├─────────────────────────────────┼────────────────────────┼───────────────┤
│ dense_172 (Dense)               │ (None, 12, 100)        │        10,100 │
├─────────────────────────────────┼────────────────────────┼───────────────┤
│ flatten_57 (Flatten)            │ (None, 1200)           │             0 │
├─────────────────────────────────┼────────────────────────┼───────────────┤
│ dense_173 (Dense)               │ (None, 1)              │         1,201 │
└─────────────────────────────────┴────────────────────────┴───────────────┘
 Total params: 13,101 (51.18 KB)
 Trainable params: 13,101 (51.18 KB)
 Non-trainable params: 0 (0.00 B)
Model: "sequential_58"
┏━━━━━━━━━━━━━━━━━━━━━━━━━━━━━━━━━┳━━━━━━━━━━━━━━━━━━━━━━━━┳━━━━━━━━━━━━━━━┓
┃ Layer (type)                    ┃ Output Shape           ┃       Param # ┃
┡━━━━━━━━━━━━━━━━━━━━━━━━━━━━━━━━━╇━━━━━━━━━━━━━━━━━━━━━━━━╇━━━━━━━━━━━━━━━┩
│ dense_174 (Dense)               │ (None, 10, 16, 100)    │         1,600 │
├─────────────────────────────────┼────────────────────────┼───────────────┤
│ dense_175 (Dense)               │ (None, 10, 16, 100)    │        10,100 │
├─────────────────────────────────┼────────────────────────┼───────────────┤
│ flatten_58 (Flatten)            │ (None, 16000)          │             0 │
├─────────────────────────────────┼────────────────────────┼───────────────┤
│ dense_176 (Dense)               │ (None, 1)              │        16,001 │
└─────────────────────────────────┴────────────────────────┴───────────────┘
 Total params: 27,701 (108.21 KB)
 Trainable params: 27,701 (108.21 KB)
 Non-trainable params: 0 (0.00 B)
Model: "sequential_59"
┏━━━━━━━━━━━━━━━━━━━━━━━━━━━━━━━━━┳━━━━━━━━━━━━━━━━━━━━━━━━┳━━━━━━━━━━━━━━━┓
┃ Layer (type)                    ┃ Output Shape           ┃       Param # ┃
┡━━━━━━━━━━━━━━━━━━━━━━━━━━━━━━━━━╇━━━━━━━━━━━━━━━━━━━━━━━━╇━━━━━━━━━━━━━━━┩
│ dense_177 (Dense)               │ (None, 15, 100)        │         2,000 │
├─────────────────────────────────┼────────────────────────┼───────────────┤
│ dense_178 (Dense)               │ (None, 15, 100)        │        10,100 │
├─────────────────────────────────┼────────────────────────┼───────────────┤
│ flatten_59 (Flatten)            │ (None, 1500)           │             0 │
├─────────────────────────────────┼────────────────────────┼───────────────┤
│ dense_179 (Dense)               │ (None, 1)              │         1,501 │
└─────────────────────────────────┴────────────────────────┴───────────────┘
 Total params: 13,601 (53.13 KB)
 Trainable params: 13,601 (53.13 KB)
 Non-trainable params: 0 (0.00 B)
Model: "sequential_60"
┏━━━━━━━━━━━━━━━━━━━━━━━━━━━━━━━━━┳━━━━━━━━━━━━━━━━━━━━━━━━┳━━━━━━━━━━━━━━━┓
┃ Layer (type)                    ┃ Output Shape           ┃       Param # ┃
┡━━━━━━━━━━━━━━━━━━━━━━━━━━━━━━━━━╇━━━━━━━━━━━━━━━━━━━━━━━━╇━━━━━━━━━━━━━━━┩
│ dense_180 (Dense)               │ (None, 3, 5, 100)      │         2,000 │
├─────────────────────────────────┼────────────────────────┼───────────────┤
│ dense_181 (Dense)               │ (None, 3, 5, 100)      │        10,100 │
├─────────────────────────────────┼────────────────────────┼───────────────┤
│ flatten_60 (Flatten)            │ (None, 1500)           │             0 │
├─────────────────────────────────┼────────────────────────┼───────────────┤
│ dense_182 (Dense)               │ (None, 1)              │         1,501 │
└─────────────────────────────────┴────────────────────────┴───────────────┘
 Total params: 13,601 (53.13 KB)
 Trainable params: 13,601 (53.13 KB)
 Non-trainable params: 0 (0.00 B)
Model: "sequential_61"
┏━━━━━━━━━━━━━━━━━━━━━━━━━━━━━━━━━┳━━━━━━━━━━━━━━━━━━━━━━━━┳━━━━━━━━━━━━━━━┓
┃ Layer (type)                    ┃ Output Shape           ┃       Param # ┃
┡━━━━━━━━━━━━━━━━━━━━━━━━━━━━━━━━━╇━━━━━━━━━━━━━━━━━━━━━━━━╇━━━━━━━━━━━━━━━┩
│ dense_183 (Dense)               │ (None, 9, 7, 100)      │         1,900 │
├─────────────────────────────────┼────────────────────────┼───────────────┤
│ dense_184 (Dense)               │ (None, 9, 7, 100)      │        10,100 │
├─────────────────────────────────┼────────────────────────┼───────────────┤
│ flatten_61 (Flatten)            │ (None, 6300)           │             0 │
├─────────────────────────────────┼────────────────────────┼───────────────┤
│ dense_185 (Dense)               │ (None, 1)              │         6,301 │
└─────────────────────────────────┴────────────────────────┴───────────────┘
 Total params: 18,301 (71.49 KB)
 Trainable params: 18,301 (71.49 KB)
 Non-trainable params: 0 (0.00 B)
Model: "sequential_62"
┏━━━━━━━━━━━━━━━━━━━━━━━━━━━━━━━━━┳━━━━━━━━━━━━━━━━━━━━━━━━┳━━━━━━━━━━━━━━━┓
┃ Layer (type)                    ┃ Output Shape           ┃       Param # ┃
┡━━━━━━━━━━━━━━━━━━━━━━━━━━━━━━━━━╇━━━━━━━━━━━━━━━━━━━━━━━━╇━━━━━━━━━━━━━━━┩
│ dense_186 (Dense)               │ (None, 100)            │         1,500 │
├─────────────────────────────────┼────────────────────────┼───────────────┤
│ dense_187 (Dense)               │ (None, 100)            │        10,100 │
├─────────────────────────────────┼────────────────────────┼───────────────┤
│ flatten_62 (Flatten)            │ (None, 100)            │             0 │
├─────────────────────────────────┼────────────────────────┼───────────────┤
│ dense_188 (Dense)               │ (None, 1)              │           101 │
└─────────────────────────────────┴────────────────────────┴───────────────┘
 Total params: 11,701 (45.71 KB)
 Trainable params: 11,701 (45.71 KB)
 Non-trainable params: 0 (0.00 B)
Model: "sequential_63"
┏━━━━━━━━━━━━━━━━━━━━━━━━━━━━━━━━━┳━━━━━━━━━━━━━━━━━━━━━━━━┳━━━━━━━━━━━━━━━┓
┃ Layer (type)                    ┃ Output Shape           ┃       Param # ┃
┡━━━━━━━━━━━━━━━━━━━━━━━━━━━━━━━━━╇━━━━━━━━━━━━━━━━━━━━━━━━╇━━━━━━━━━━━━━━━┩
│ dense_189 (Dense)               │ (None, 9, 100)         │           300 │
├─────────────────────────────────┼────────────────────────┼───────────────┤
│ dense_190 (Dense)               │ (None, 9, 100)         │        10,100 │
├─────────────────────────────────┼────────────────────────┼───────────────┤
│ flatten_63 (Flatten)            │ (None, 900)            │             0 │
├─────────────────────────────────┼────────────────────────┼───────────────┤
│ dense_191 (Dense)               │ (None, 1)              │           901 │
└─────────────────────────────────┴────────────────────────┴───────────────┘
 Total params: 11,301 (44.14 KB)
 Trainable params: 11,301 (44.14 KB)
 Non-trainable params: 0 (0.00 B)
Model: "sequential_64"
┏━━━━━━━━━━━━━━━━━━━━━━━━━━━━━━━━━┳━━━━━━━━━━━━━━━━━━━━━━━━┳━━━━━━━━━━━━━━━┓
┃ Layer (type)                    ┃ Output Shape           ┃       Param # ┃
┡━━━━━━━━━━━━━━━━━━━━━━━━━━━━━━━━━╇━━━━━━━━━━━━━━━━━━━━━━━━╇━━━━━━━━━━━━━━━┩
│ dense_192 (Dense)               │ (None, 7, 12, 100)     │           900 │
├─────────────────────────────────┼────────────────────────┼───────────────┤
│ dense_193 (Dense)               │ (None, 7, 12, 100)     │        10,100 │
├─────────────────────────────────┼────────────────────────┼───────────────┤
│ flatten_64 (Flatten)            │ (None, 8400)           │             0 │
├─────────────────────────────────┼────────────────────────┼───────────────┤
│ dense_194 (Dense)               │ (None, 1)              │         8,401 │
└─────────────────────────────────┴────────────────────────┴───────────────┘
 Total params: 19,401 (75.79 KB)
 Trainable params: 19,401 (75.79 KB)
 Non-trainable params: 0 (0.00 B)
Model: "sequential_65"
┏━━━━━━━━━━━━━━━━━━━━━━━━━━━━━━━━━┳━━━━━━━━━━━━━━━━━━━━━━━━┳━━━━━━━━━━━━━━━┓
┃ Layer (type)                    ┃ Output Shape           ┃       Param # ┃
┡━━━━━━━━━━━━━━━━━━━━━━━━━━━━━━━━━╇━━━━━━━━━━━━━━━━━━━━━━━━╇━━━━━━━━━━━━━━━┩
│ dense_195 (Dense)               │ (None, 3, 14, 100)     │         1,800 │
├─────────────────────────────────┼────────────────────────┼───────────────┤
│ dense_196 (Dense)               │ (None, 3, 14, 100)     │        10,100 │
├─────────────────────────────────┼────────────────────────┼───────────────┤
│ flatten_65 (Flatten)            │ (None, 4200)           │             0 │
├─────────────────────────────────┼────────────────────────┼───────────────┤
│ dense_197 (Dense)               │ (None, 1)              │         4,201 │
└─────────────────────────────────┴────────────────────────┴───────────────┘
 Total params: 16,101 (62.89 KB)
 Trainable params: 16,101 (62.89 KB)
 Non-trainable params: 0 (0.00 B)
Model: "sequential_66"
┏━━━━━━━━━━━━━━━━━━━━━━━━━━━━━━━━━┳━━━━━━━━━━━━━━━━━━━━━━━━┳━━━━━━━━━━━━━━━┓
┃ Layer (type)                    ┃ Output Shape           ┃       Param # ┃
┡━━━━━━━━━━━━━━━━━━━━━━━━━━━━━━━━━╇━━━━━━━━━━━━━━━━━━━━━━━━╇━━━━━━━━━━━━━━━┩
│ dense_198 (Dense)               │ (None, 8, 100)         │           500 │
├─────────────────────────────────┼────────────────────────┼───────────────┤
│ dense_199 (Dense)               │ (None, 8, 100)         │        10,100 │
├─────────────────────────────────┼────────────────────────┼───────────────┤
│ flatten_66 (Flatten)            │ (None, 800)            │             0 │
├─────────────────────────────────┼────────────────────────┼───────────────┤
│ dense_200 (Dense)               │ (None, 1)              │           801 │
└─────────────────────────────────┴────────────────────────┴───────────────┘
 Total params: 11,401 (44.54 KB)
 Trainable params: 11,401 (44.54 KB)
 Non-trainable params: 0 (0.00 B)
Model: "sequential_67"
┏━━━━━━━━━━━━━━━━━━━━━━━━━━━━━━━━━┳━━━━━━━━━━━━━━━━━━━━━━━━┳━━━━━━━━━━━━━━━┓
┃ Layer (type)                    ┃ Output Shape           ┃       Param # ┃
┡━━━━━━━━━━━━━━━━━━━━━━━━━━━━━━━━━╇━━━━━━━━━━━━━━━━━━━━━━━━╇━━━━━━━━━━━━━━━┩
│ dense_201 (Dense)               │ (None, 6, 100)         │         1,100 │
├─────────────────────────────────┼────────────────────────┼───────────────┤
│ dense_202 (Dense)               │ (None, 6, 100)         │        10,100 │
├─────────────────────────────────┼────────────────────────┼───────────────┤
│ flatten_67 (Flatten)            │ (None, 600)            │             0 │
├─────────────────────────────────┼────────────────────────┼───────────────┤
│ dense_203 (Dense)               │ (None, 1)              │           601 │
└─────────────────────────────────┴────────────────────────┴───────────────┘
 Total params: 11,801 (46.10 KB)
 Trainable params: 11,801 (46.10 KB)
 Non-trainable params: 0 (0.00 B)
Model: "sequential_68"
┏━━━━━━━━━━━━━━━━━━━━━━━━━━━━━━━━━┳━━━━━━━━━━━━━━━━━━━━━━━━┳━━━━━━━━━━━━━━━┓
┃ Layer (type)                    ┃ Output Shape           ┃       Param # ┃
┡━━━━━━━━━━━━━━━━━━━━━━━━━━━━━━━━━╇━━━━━━━━━━━━━━━━━━━━━━━━╇━━━━━━━━━━━━━━━┩
│ dense_204 (Dense)               │ (None, 18, 100)        │         1,300 │
├─────────────────────────────────┼────────────────────────┼───────────────┤
│ dense_205 (Dense)               │ (None, 18, 100)        │        10,100 │
├─────────────────────────────────┼────────────────────────┼───────────────┤
│ flatten_68 (Flatten)            │ (None, 1800)           │             0 │
├─────────────────────────────────┼────────────────────────┼───────────────┤
│ dense_206 (Dense)               │ (None, 1)              │         1,801 │
└─────────────────────────────────┴────────────────────────┴───────────────┘
 Total params: 13,201 (51.57 KB)
 Trainable params: 13,201 (51.57 KB)
 Non-trainable params: 0 (0.00 B)
Model: "sequential_69"
┏━━━━━━━━━━━━━━━━━━━━━━━━━━━━━━━━━┳━━━━━━━━━━━━━━━━━━━━━━━━┳━━━━━━━━━━━━━━━┓
┃ Layer (type)                    ┃ Output Shape           ┃       Param # ┃
┡━━━━━━━━━━━━━━━━━━━━━━━━━━━━━━━━━╇━━━━━━━━━━━━━━━━━━━━━━━━╇━━━━━━━━━━━━━━━┩
│ dense_207 (Dense)               │ (None, 10, 100)        │           500 │
├─────────────────────────────────┼────────────────────────┼───────────────┤
│ dense_208 (Dense)               │ (None, 10, 100)        │        10,100 │
├─────────────────────────────────┼────────────────────────┼───────────────┤
│ flatten_69 (Flatten)            │ (None, 1000)           │             0 │
├─────────────────────────────────┼────────────────────────┼───────────────┤
│ dense_209 (Dense)               │ (None, 1)              │         1,001 │
└─────────────────────────────────┴────────────────────────┴───────────────┘
 Total params: 11,601 (45.32 KB)
 Trainable params: 11,601 (45.32 KB)
 Non-trainable params: 0 (0.00 B)
Model: "sequential_70"
┏━━━━━━━━━━━━━━━━━━━━━━━━━━━━━━━━━┳━━━━━━━━━━━━━━━━━━━━━━━━┳━━━━━━━━━━━━━━━┓
┃ Layer (type)                    ┃ Output Shape           ┃       Param # ┃
┡━━━━━━━━━━━━━━━━━━━━━━━━━━━━━━━━━╇━━━━━━━━━━━━━━━━━━━━━━━━╇━━━━━━━━━━━━━━━┩
│ dense_210 (Dense)               │ (None, 16, 100)        │         1,600 │
├─────────────────────────────────┼────────────────────────┼───────────────┤
│ dense_211 (Dense)               │ (None, 16, 100)        │        10,100 │
├─────────────────────────────────┼────────────────────────┼───────────────┤
│ flatten_70 (Flatten)            │ (None, 1600)           │             0 │
├─────────────────────────────────┼────────────────────────┼───────────────┤
│ dense_212 (Dense)               │ (None, 1)              │         1,601 │
└─────────────────────────────────┴────────────────────────┴───────────────┘
 Total params: 13,301 (51.96 KB)
 Trainable params: 13,301 (51.96 KB)
 Non-trainable params: 0 (0.00 B)
Model: "sequential_71"
┏━━━━━━━━━━━━━━━━━━━━━━━━━━━━━━━━━┳━━━━━━━━━━━━━━━━━━━━━━━━┳━━━━━━━━━━━━━━━┓
┃ Layer (type)                    ┃ Output Shape           ┃       Param # ┃
┡━━━━━━━━━━━━━━━━━━━━━━━━━━━━━━━━━╇━━━━━━━━━━━━━━━━━━━━━━━━╇━━━━━━━━━━━━━━━┩
│ dense_213 (Dense)               │ (None, 8, 100)         │         1,700 │
├─────────────────────────────────┼────────────────────────┼───────────────┤
│ dense_214 (Dense)               │ (None, 8, 100)         │        10,100 │
├─────────────────────────────────┼────────────────────────┼───────────────┤
│ flatten_71 (Flatten)            │ (None, 800)            │             0 │
├─────────────────────────────────┼────────────────────────┼───────────────┤
│ dense_215 (Dense)               │ (None, 1)              │           801 │
└─────────────────────────────────┴────────────────────────┴───────────────┘
 Total params: 12,601 (49.22 KB)
 Trainable params: 12,601 (49.22 KB)
 Non-trainable params: 0 (0.00 B)
Model: "sequential_72"
┏━━━━━━━━━━━━━━━━━━━━━━━━━━━━━━━━━┳━━━━━━━━━━━━━━━━━━━━━━━━┳━━━━━━━━━━━━━━━┓
┃ Layer (type)                    ┃ Output Shape           ┃       Param # ┃
┡━━━━━━━━━━━━━━━━━━━━━━━━━━━━━━━━━╇━━━━━━━━━━━━━━━━━━━━━━━━╇━━━━━━━━━━━━━━━┩
│ dense_216 (Dense)               │ (None, 100)            │         1,900 │
├─────────────────────────────────┼────────────────────────┼───────────────┤
│ dense_217 (Dense)               │ (None, 100)            │        10,100 │
├─────────────────────────────────┼────────────────────────┼───────────────┤
│ flatten_72 (Flatten)            │ (None, 100)            │             0 │
├─────────────────────────────────┼────────────────────────┼───────────────┤
│ dense_218 (Dense)               │ (None, 1)              │           101 │
└─────────────────────────────────┴────────────────────────┴───────────────┘
 Total params: 12,101 (47.27 KB)
 Trainable params: 12,101 (47.27 KB)
 Non-trainable params: 0 (0.00 B)
Model: "sequential_73"
┏━━━━━━━━━━━━━━━━━━━━━━━━━━━━━━━━━┳━━━━━━━━━━━━━━━━━━━━━━━━┳━━━━━━━━━━━━━━━┓
┃ Layer (type)                    ┃ Output Shape           ┃       Param # ┃
┡━━━━━━━━━━━━━━━━━━━━━━━━━━━━━━━━━╇━━━━━━━━━━━━━━━━━━━━━━━━╇━━━━━━━━━━━━━━━┩
│ dense_219 (Dense)               │ (None, 13, 9, 100)     │         1,600 │
├─────────────────────────────────┼────────────────────────┼───────────────┤
│ dense_220 (Dense)               │ (None, 13, 9, 100)     │        10,100 │
├─────────────────────────────────┼────────────────────────┼───────────────┤
│ flatten_73 (Flatten)            │ (None, 11700)          │             0 │
├─────────────────────────────────┼────────────────────────┼───────────────┤
│ dense_221 (Dense)               │ (None, 1)              │        11,701 │
└─────────────────────────────────┴────────────────────────┴───────────────┘
 Total params: 23,401 (91.41 KB)
 Trainable params: 23,401 (91.41 KB)
 Non-trainable params: 0 (0.00 B)
Model: "sequential_74"
┏━━━━━━━━━━━━━━━━━━━━━━━━━━━━━━━━━┳━━━━━━━━━━━━━━━━━━━━━━━━┳━━━━━━━━━━━━━━━┓
┃ Layer (type)                    ┃ Output Shape           ┃       Param # ┃
┡━━━━━━━━━━━━━━━━━━━━━━━━━━━━━━━━━╇━━━━━━━━━━━━━━━━━━━━━━━━╇━━━━━━━━━━━━━━━┩
│ dense_222 (Dense)               │ (None, 100)            │           200 │
├─────────────────────────────────┼────────────────────────┼───────────────┤
│ dense_223 (Dense)               │ (None, 100)            │        10,100 │
├─────────────────────────────────┼────────────────────────┼───────────────┤
│ flatten_74 (Flatten)            │ (None, 100)            │             0 │
├─────────────────────────────────┼────────────────────────┼───────────────┤
│ dense_224 (Dense)               │ (None, 1)              │           101 │
└─────────────────────────────────┴────────────────────────┴───────────────┘
 Total params: 10,401 (40.63 KB)
 Trainable params: 10,401 (40.63 KB)
 Non-trainable params: 0 (0.00 B)
Model: "sequential_75"
┏━━━━━━━━━━━━━━━━━━━━━━━━━━━━━━━━━┳━━━━━━━━━━━━━━━━━━━━━━━━┳━━━━━━━━━━━━━━━┓
┃ Layer (type)                    ┃ Output Shape           ┃       Param # ┃
┡━━━━━━━━━━━━━━━━━━━━━━━━━━━━━━━━━╇━━━━━━━━━━━━━━━━━━━━━━━━╇━━━━━━━━━━━━━━━┩
│ dense_225 (Dense)               │ (None, 100)            │           800 │
├─────────────────────────────────┼────────────────────────┼───────────────┤
│ dense_226 (Dense)               │ (None, 100)            │        10,100 │
├─────────────────────────────────┼────────────────────────┼───────────────┤
│ flatten_75 (Flatten)            │ (None, 100)            │             0 │
├─────────────────────────────────┼────────────────────────┼───────────────┤
│ dense_227 (Dense)               │ (None, 1)              │           101 │
└─────────────────────────────────┴────────────────────────┴───────────────┘
 Total params: 11,001 (42.97 KB)
 Trainable params: 11,001 (42.97 KB)
 Non-trainable params: 0 (0.00 B)
Model: "sequential_76"
┏━━━━━━━━━━━━━━━━━━━━━━━━━━━━━━━━━┳━━━━━━━━━━━━━━━━━━━━━━━━┳━━━━━━━━━━━━━━━┓
┃ Layer (type)                    ┃ Output Shape           ┃       Param # ┃
┡━━━━━━━━━━━━━━━━━━━━━━━━━━━━━━━━━╇━━━━━━━━━━━━━━━━━━━━━━━━╇━━━━━━━━━━━━━━━┩
│ dense_228 (Dense)               │ (None, 100)            │           200 │
├─────────────────────────────────┼────────────────────────┼───────────────┤
│ dense_229 (Dense)               │ (None, 100)            │        10,100 │
├─────────────────────────────────┼────────────────────────┼───────────────┤
│ flatten_76 (Flatten)            │ (None, 100)            │             0 │
├─────────────────────────────────┼────────────────────────┼───────────────┤
│ dense_230 (Dense)               │ (None, 1)              │           101 │
└─────────────────────────────────┴────────────────────────┴───────────────┘
 Total params: 10,401 (40.63 KB)
 Trainable params: 10,401 (40.63 KB)
 Non-trainable params: 0 (0.00 B)
Model: "sequential_77"
┏━━━━━━━━━━━━━━━━━━━━━━━━━━━━━━━━━┳━━━━━━━━━━━━━━━━━━━━━━━━┳━━━━━━━━━━━━━━━┓
┃ Layer (type)                    ┃ Output Shape           ┃       Param # ┃
┡━━━━━━━━━━━━━━━━━━━━━━━━━━━━━━━━━╇━━━━━━━━━━━━━━━━━━━━━━━━╇━━━━━━━━━━━━━━━┩
│ dense_231 (Dense)               │ (None, 11, 19, 100)    │         1,800 │
├─────────────────────────────────┼────────────────────────┼───────────────┤
│ dense_232 (Dense)               │ (None, 11, 19, 100)    │        10,100 │
├─────────────────────────────────┼────────────────────────┼───────────────┤
│ flatten_77 (Flatten)            │ (None, 20900)          │             0 │
├─────────────────────────────────┼────────────────────────┼───────────────┤
│ dense_233 (Dense)               │ (None, 1)              │        20,901 │
└─────────────────────────────────┴────────────────────────┴───────────────┘
 Total params: 32,801 (128.13 KB)
 Trainable params: 32,801 (128.13 KB)
 Non-trainable params: 0 (0.00 B)
Model: "sequential_78"
┏━━━━━━━━━━━━━━━━━━━━━━━━━━━━━━━━━┳━━━━━━━━━━━━━━━━━━━━━━━━┳━━━━━━━━━━━━━━━┓
┃ Layer (type)                    ┃ Output Shape           ┃       Param # ┃
┡━━━━━━━━━━━━━━━━━━━━━━━━━━━━━━━━━╇━━━━━━━━━━━━━━━━━━━━━━━━╇━━━━━━━━━━━━━━━┩
│ dense_234 (Dense)               │ (None, 3, 1, 100)      │           600 │
├─────────────────────────────────┼────────────────────────┼───────────────┤
│ dense_235 (Dense)               │ (None, 3, 1, 100)      │        10,100 │
├─────────────────────────────────┼────────────────────────┼───────────────┤
│ flatten_78 (Flatten)            │ (None, 300)            │             0 │
├─────────────────────────────────┼────────────────────────┼───────────────┤
│ dense_236 (Dense)               │ (None, 1)              │           301 │
└─────────────────────────────────┴────────────────────────┴───────────────┘
 Total params: 11,001 (42.97 KB)
 Trainable params: 11,001 (42.97 KB)
 Non-trainable params: 0 (0.00 B)
Model: "sequential_79"
┏━━━━━━━━━━━━━━━━━━━━━━━━━━━━━━━━━┳━━━━━━━━━━━━━━━━━━━━━━━━┳━━━━━━━━━━━━━━━┓
┃ Layer (type)                    ┃ Output Shape           ┃       Param # ┃
┡━━━━━━━━━━━━━━━━━━━━━━━━━━━━━━━━━╇━━━━━━━━━━━━━━━━━━━━━━━━╇━━━━━━━━━━━━━━━┩
│ dense_237 (Dense)               │ (None, 7, 100)         │         1,000 │
├─────────────────────────────────┼────────────────────────┼───────────────┤
│ dense_238 (Dense)               │ (None, 7, 100)         │        10,100 │
├─────────────────────────────────┼────────────────────────┼───────────────┤
│ flatten_79 (Flatten)            │ (None, 700)            │             0 │
├─────────────────────────────────┼────────────────────────┼───────────────┤
│ dense_239 (Dense)               │ (None, 1)              │           701 │
└─────────────────────────────────┴────────────────────────┴───────────────┘
 Total params: 11,801 (46.10 KB)
 Trainable params: 11,801 (46.10 KB)
 Non-trainable params: 0 (0.00 B)
Model: "sequential_80"
┏━━━━━━━━━━━━━━━━━━━━━━━━━━━━━━━━━┳━━━━━━━━━━━━━━━━━━━━━━━━┳━━━━━━━━━━━━━━━┓
┃ Layer (type)                    ┃ Output Shape           ┃       Param # ┃
┡━━━━━━━━━━━━━━━━━━━━━━━━━━━━━━━━━╇━━━━━━━━━━━━━━━━━━━━━━━━╇━━━━━━━━━━━━━━━┩
│ dense_240 (Dense)               │ (None, 9, 8, 100)      │         1,300 │
├─────────────────────────────────┼────────────────────────┼───────────────┤
│ dense_241 (Dense)               │ (None, 9, 8, 100)      │        10,100 │
├─────────────────────────────────┼────────────────────────┼───────────────┤
│ flatten_80 (Flatten)            │ (None, 7200)           │             0 │
├─────────────────────────────────┼────────────────────────┼───────────────┤
│ dense_242 (Dense)               │ (None, 1)              │         7,201 │
└─────────────────────────────────┴────────────────────────┴───────────────┘
 Total params: 18,601 (72.66 KB)
 Trainable params: 18,601 (72.66 KB)
 Non-trainable params: 0 (0.00 B)
Model: "sequential_81"
┏━━━━━━━━━━━━━━━━━━━━━━━━━━━━━━━━━┳━━━━━━━━━━━━━━━━━━━━━━━━┳━━━━━━━━━━━━━━━┓
┃ Layer (type)                    ┃ Output Shape           ┃       Param # ┃
┡━━━━━━━━━━━━━━━━━━━━━━━━━━━━━━━━━╇━━━━━━━━━━━━━━━━━━━━━━━━╇━━━━━━━━━━━━━━━┩
│ dense_243 (Dense)               │ (None, 1, 100)         │         1,700 │
├─────────────────────────────────┼────────────────────────┼───────────────┤
│ dense_244 (Dense)               │ (None, 1, 100)         │        10,100 │
├─────────────────────────────────┼────────────────────────┼───────────────┤
│ flatten_81 (Flatten)            │ (None, 100)            │             0 │
├─────────────────────────────────┼────────────────────────┼───────────────┤
│ dense_245 (Dense)               │ (None, 1)              │           101 │
└─────────────────────────────────┴────────────────────────┴───────────────┘
 Total params: 11,901 (46.49 KB)
 Trainable params: 11,901 (46.49 KB)
 Non-trainable params: 0 (0.00 B)
Model: "sequential_82"
┏━━━━━━━━━━━━━━━━━━━━━━━━━━━━━━━━━┳━━━━━━━━━━━━━━━━━━━━━━━━┳━━━━━━━━━━━━━━━┓
┃ Layer (type)                    ┃ Output Shape           ┃       Param # ┃
┡━━━━━━━━━━━━━━━━━━━━━━━━━━━━━━━━━╇━━━━━━━━━━━━━━━━━━━━━━━━╇━━━━━━━━━━━━━━━┩
│ dense_246 (Dense)               │ (None, 5, 3, 100)      │         1,300 │
├─────────────────────────────────┼────────────────────────┼───────────────┤
│ dense_247 (Dense)               │ (None, 5, 3, 100)      │        10,100 │
├─────────────────────────────────┼────────────────────────┼───────────────┤
│ flatten_82 (Flatten)            │ (None, 1500)           │             0 │
├─────────────────────────────────┼────────────────────────┼───────────────┤
│ dense_248 (Dense)               │ (None, 1)              │         1,501 │
└─────────────────────────────────┴────────────────────────┴───────────────┘
 Total params: 12,901 (50.39 KB)
 Trainable params: 12,901 (50.39 KB)
 Non-trainable params: 0 (0.00 B)
Model: "sequential_83"
┏━━━━━━━━━━━━━━━━━━━━━━━━━━━━━━━━━┳━━━━━━━━━━━━━━━━━━━━━━━━┳━━━━━━━━━━━━━━━┓
┃ Layer (type)                    ┃ Output Shape           ┃       Param # ┃
┡━━━━━━━━━━━━━━━━━━━━━━━━━━━━━━━━━╇━━━━━━━━━━━━━━━━━━━━━━━━╇━━━━━━━━━━━━━━━┩
│ dense_249 (Dense)               │ (None, 3, 100)         │           200 │
├─────────────────────────────────┼────────────────────────┼───────────────┤
│ dense_250 (Dense)               │ (None, 3, 100)         │        10,100 │
├─────────────────────────────────┼────────────────────────┼───────────────┤
│ flatten_83 (Flatten)            │ (None, 300)            │             0 │
├─────────────────────────────────┼────────────────────────┼───────────────┤
│ dense_251 (Dense)               │ (None, 1)              │           301 │
└─────────────────────────────────┴────────────────────────┴───────────────┘
 Total params: 10,601 (41.41 KB)
 Trainable params: 10,601 (41.41 KB)
 Non-trainable params: 0 (0.00 B)
Model: "sequential_84"
┏━━━━━━━━━━━━━━━━━━━━━━━━━━━━━━━━━┳━━━━━━━━━━━━━━━━━━━━━━━━┳━━━━━━━━━━━━━━━┓
┃ Layer (type)                    ┃ Output Shape           ┃       Param # ┃
┡━━━━━━━━━━━━━━━━━━━━━━━━━━━━━━━━━╇━━━━━━━━━━━━━━━━━━━━━━━━╇━━━━━━━━━━━━━━━┩
│ dense_252 (Dense)               │ (None, 5, 15, 100)     │         1,500 │
├─────────────────────────────────┼────────────────────────┼───────────────┤
│ dense_253 (Dense)               │ (None, 5, 15, 100)     │        10,100 │
├─────────────────────────────────┼────────────────────────┼───────────────┤
│ flatten_84 (Flatten)            │ (None, 7500)           │             0 │
├─────────────────────────────────┼────────────────────────┼───────────────┤
│ dense_254 (Dense)               │ (None, 1)              │         7,501 │
└─────────────────────────────────┴────────────────────────┴───────────────┘
 Total params: 19,101 (74.61 KB)
 Trainable params: 19,101 (74.61 KB)
 Non-trainable params: 0 (0.00 B)
Model: "sequential_85"
┏━━━━━━━━━━━━━━━━━━━━━━━━━━━━━━━━━┳━━━━━━━━━━━━━━━━━━━━━━━━┳━━━━━━━━━━━━━━━┓
┃ Layer (type)                    ┃ Output Shape           ┃       Param # ┃
┡━━━━━━━━━━━━━━━━━━━━━━━━━━━━━━━━━╇━━━━━━━━━━━━━━━━━━━━━━━━╇━━━━━━━━━━━━━━━┩
│ dense_255 (Dense)               │ (None, 1, 5, 100)      │         1,500 │
├─────────────────────────────────┼────────────────────────┼───────────────┤
│ dense_256 (Dense)               │ (None, 1, 5, 100)      │        10,100 │
├─────────────────────────────────┼────────────────────────┼───────────────┤
│ flatten_85 (Flatten)            │ (None, 500)            │             0 │
├─────────────────────────────────┼────────────────────────┼───────────────┤
│ dense_257 (Dense)               │ (None, 1)              │           501 │
└─────────────────────────────────┴────────────────────────┴───────────────┘
 Total params: 12,101 (47.27 KB)
 Trainable params: 12,101 (47.27 KB)
 Non-trainable params: 0 (0.00 B)
Model: "sequential_86"
┏━━━━━━━━━━━━━━━━━━━━━━━━━━━━━━━━━┳━━━━━━━━━━━━━━━━━━━━━━━━┳━━━━━━━━━━━━━━━┓
┃ Layer (type)                    ┃ Output Shape           ┃       Param # ┃
┡━━━━━━━━━━━━━━━━━━━━━━━━━━━━━━━━━╇━━━━━━━━━━━━━━━━━━━━━━━━╇━━━━━━━━━━━━━━━┩
│ dense_258 (Dense)               │ (None, 9, 15, 100)     │         1,600 │
├─────────────────────────────────┼────────────────────────┼───────────────┤
│ dense_259 (Dense)               │ (None, 9, 15, 100)     │        10,100 │
├─────────────────────────────────┼────────────────────────┼───────────────┤
│ flatten_86 (Flatten)            │ (None, 13500)          │             0 │
├─────────────────────────────────┼────────────────────────┼───────────────┤
│ dense_260 (Dense)               │ (None, 1)              │        13,501 │
└─────────────────────────────────┴────────────────────────┴───────────────┘
 Total params: 25,201 (98.44 KB)
 Trainable params: 25,201 (98.44 KB)
 Non-trainable params: 0 (0.00 B)
Model: "sequential_87"
┏━━━━━━━━━━━━━━━━━━━━━━━━━━━━━━━━━┳━━━━━━━━━━━━━━━━━━━━━━━━┳━━━━━━━━━━━━━━━┓
┃ Layer (type)                    ┃ Output Shape           ┃       Param # ┃
┡━━━━━━━━━━━━━━━━━━━━━━━━━━━━━━━━━╇━━━━━━━━━━━━━━━━━━━━━━━━╇━━━━━━━━━━━━━━━┩
│ dense_261 (Dense)               │ (None, 10, 100)        │         1,400 │
├─────────────────────────────────┼────────────────────────┼───────────────┤
│ dense_262 (Dense)               │ (None, 10, 100)        │        10,100 │
├─────────────────────────────────┼────────────────────────┼───────────────┤
│ flatten_87 (Flatten)            │ (None, 1000)           │             0 │
├─────────────────────────────────┼────────────────────────┼───────────────┤
│ dense_263 (Dense)               │ (None, 1)              │         1,001 │
└─────────────────────────────────┴────────────────────────┴───────────────┘
 Total params: 12,501 (48.83 KB)
 Trainable params: 12,501 (48.83 KB)
 Non-trainable params: 0 (0.00 B)
Model: "sequential_88"
┏━━━━━━━━━━━━━━━━━━━━━━━━━━━━━━━━━┳━━━━━━━━━━━━━━━━━━━━━━━━┳━━━━━━━━━━━━━━━┓
┃ Layer (type)                    ┃ Output Shape           ┃       Param # ┃
┡━━━━━━━━━━━━━━━━━━━━━━━━━━━━━━━━━╇━━━━━━━━━━━━━━━━━━━━━━━━╇━━━━━━━━━━━━━━━┩
│ dense_264 (Dense)               │ (None, 7, 17, 100)     │           500 │
├─────────────────────────────────┼────────────────────────┼───────────────┤
│ dense_265 (Dense)               │ (None, 7, 17, 100)     │        10,100 │
├─────────────────────────────────┼────────────────────────┼───────────────┤
│ flatten_88 (Flatten)            │ (None, 11900)          │             0 │
├─────────────────────────────────┼────────────────────────┼───────────────┤
│ dense_266 (Dense)               │ (None, 1)              │        11,901 │
└─────────────────────────────────┴────────────────────────┴───────────────┘
 Total params: 22,501 (87.89 KB)
 Trainable params: 22,501 (87.89 KB)
 Non-trainable params: 0 (0.00 B)
Model: "sequential_89"
┏━━━━━━━━━━━━━━━━━━━━━━━━━━━━━━━━━┳━━━━━━━━━━━━━━━━━━━━━━━━┳━━━━━━━━━━━━━━━┓
┃ Layer (type)                    ┃ Output Shape           ┃       Param # ┃
┡━━━━━━━━━━━━━━━━━━━━━━━━━━━━━━━━━╇━━━━━━━━━━━━━━━━━━━━━━━━╇━━━━━━━━━━━━━━━┩
│ dense_267 (Dense)               │ (None, 5, 100)         │           800 │
├─────────────────────────────────┼────────────────────────┼───────────────┤
│ dense_268 (Dense)               │ (None, 5, 100)         │        10,100 │
├─────────────────────────────────┼────────────────────────┼───────────────┤
│ flatten_89 (Flatten)            │ (None, 500)            │             0 │
├─────────────────────────────────┼────────────────────────┼───────────────┤
│ dense_269 (Dense)               │ (None, 1)              │           501 │
└─────────────────────────────────┴────────────────────────┴───────────────┘
 Total params: 11,401 (44.54 KB)
 Trainable params: 11,401 (44.54 KB)
 Non-trainable params: 0 (0.00 B)
Model: "sequential_90"
┏━━━━━━━━━━━━━━━━━━━━━━━━━━━━━━━━━┳━━━━━━━━━━━━━━━━━━━━━━━━┳━━━━━━━━━━━━━━━┓
┃ Layer (type)                    ┃ Output Shape           ┃       Param # ┃
┡━━━━━━━━━━━━━━━━━━━━━━━━━━━━━━━━━╇━━━━━━━━━━━━━━━━━━━━━━━━╇━━━━━━━━━━━━━━━┩
│ dense_270 (Dense)               │ (None, 100)            │         1,600 │
├─────────────────────────────────┼────────────────────────┼───────────────┤
│ dense_271 (Dense)               │ (None, 100)            │        10,100 │
├─────────────────────────────────┼────────────────────────┼───────────────┤
│ flatten_90 (Flatten)            │ (None, 100)            │             0 │
├─────────────────────────────────┼────────────────────────┼───────────────┤
│ dense_272 (Dense)               │ (None, 1)              │           101 │
└─────────────────────────────────┴────────────────────────┴───────────────┘
 Total params: 11,801 (46.10 KB)
 Trainable params: 11,801 (46.10 KB)
 Non-trainable params: 0 (0.00 B)
Model: "sequential_91"
┏━━━━━━━━━━━━━━━━━━━━━━━━━━━━━━━━━┳━━━━━━━━━━━━━━━━━━━━━━━━┳━━━━━━━━━━━━━━━┓
┃ Layer (type)                    ┃ Output Shape           ┃       Param # ┃
┡━━━━━━━━━━━━━━━━━━━━━━━━━━━━━━━━━╇━━━━━━━━━━━━━━━━━━━━━━━━╇━━━━━━━━━━━━━━━┩
│ dense_273 (Dense)               │ (None, 4, 13, 100)     │           800 │
├─────────────────────────────────┼────────────────────────┼───────────────┤
│ dense_274 (Dense)               │ (None, 4, 13, 100)     │        10,100 │
├─────────────────────────────────┼────────────────────────┼───────────────┤
│ flatten_91 (Flatten)            │ (None, 5200)           │             0 │
├─────────────────────────────────┼────────────────────────┼───────────────┤
│ dense_275 (Dense)               │ (None, 1)              │         5,201 │
└─────────────────────────────────┴────────────────────────┴───────────────┘
 Total params: 16,101 (62.89 KB)
 Trainable params: 16,101 (62.89 KB)
 Non-trainable params: 0 (0.00 B)
Model: "sequential_92"
┏━━━━━━━━━━━━━━━━━━━━━━━━━━━━━━━━━┳━━━━━━━━━━━━━━━━━━━━━━━━┳━━━━━━━━━━━━━━━┓
┃ Layer (type)                    ┃ Output Shape           ┃       Param # ┃
┡━━━━━━━━━━━━━━━━━━━━━━━━━━━━━━━━━╇━━━━━━━━━━━━━━━━━━━━━━━━╇━━━━━━━━━━━━━━━┩
│ dense_276 (Dense)               │ (None, 19, 2, 100)     │         1,100 │
├─────────────────────────────────┼────────────────────────┼───────────────┤
│ dense_277 (Dense)               │ (None, 19, 2, 100)     │        10,100 │
├─────────────────────────────────┼────────────────────────┼───────────────┤
│ flatten_92 (Flatten)            │ (None, 3800)           │             0 │
├─────────────────────────────────┼────────────────────────┼───────────────┤
│ dense_278 (Dense)               │ (None, 1)              │         3,801 │
└─────────────────────────────────┴────────────────────────┴───────────────┘
 Total params: 15,001 (58.60 KB)
 Trainable params: 15,001 (58.60 KB)
 Non-trainable params: 0 (0.00 B)
Model: "sequential_93"
┏━━━━━━━━━━━━━━━━━━━━━━━━━━━━━━━━━┳━━━━━━━━━━━━━━━━━━━━━━━━┳━━━━━━━━━━━━━━━┓
┃ Layer (type)                    ┃ Output Shape           ┃       Param # ┃
┡━━━━━━━━━━━━━━━━━━━━━━━━━━━━━━━━━╇━━━━━━━━━━━━━━━━━━━━━━━━╇━━━━━━━━━━━━━━━┩
│ dense_279 (Dense)               │ (None, 100)            │           700 │
├─────────────────────────────────┼────────────────────────┼───────────────┤
│ dense_280 (Dense)               │ (None, 100)            │        10,100 │
├─────────────────────────────────┼────────────────────────┼───────────────┤
│ flatten_93 (Flatten)            │ (None, 100)            │             0 │
├─────────────────────────────────┼────────────────────────┼───────────────┤
│ dense_281 (Dense)               │ (None, 1)              │           101 │
└─────────────────────────────────┴────────────────────────┴───────────────┘
 Total params: 10,901 (42.58 KB)
 Trainable params: 10,901 (42.58 KB)
 Non-trainable params: 0 (0.00 B)
Model: "sequential_94"
┏━━━━━━━━━━━━━━━━━━━━━━━━━━━━━━━━━┳━━━━━━━━━━━━━━━━━━━━━━━━┳━━━━━━━━━━━━━━━┓
┃ Layer (type)                    ┃ Output Shape           ┃       Param # ┃
┡━━━━━━━━━━━━━━━━━━━━━━━━━━━━━━━━━╇━━━━━━━━━━━━━━━━━━━━━━━━╇━━━━━━━━━━━━━━━┩
│ dense_282 (Dense)               │ (None, 11, 100)        │           800 │
├─────────────────────────────────┼────────────────────────┼───────────────┤
│ dense_283 (Dense)               │ (None, 11, 100)        │        10,100 │
├─────────────────────────────────┼────────────────────────┼───────────────┤
│ flatten_94 (Flatten)            │ (None, 1100)           │             0 │
├─────────────────────────────────┼────────────────────────┼───────────────┤
│ dense_284 (Dense)               │ (None, 1)              │         1,101 │
└─────────────────────────────────┴────────────────────────┴───────────────┘
 Total params: 12,001 (46.88 KB)
 Trainable params: 12,001 (46.88 KB)
 Non-trainable params: 0 (0.00 B)
Model: "sequential_95"
┏━━━━━━━━━━━━━━━━━━━━━━━━━━━━━━━━━┳━━━━━━━━━━━━━━━━━━━━━━━━┳━━━━━━━━━━━━━━━┓
┃ Layer (type)                    ┃ Output Shape           ┃       Param # ┃
┡━━━━━━━━━━━━━━━━━━━━━━━━━━━━━━━━━╇━━━━━━━━━━━━━━━━━━━━━━━━╇━━━━━━━━━━━━━━━┩
│ dense_285 (Dense)               │ (None, 1, 100)         │           200 │
├─────────────────────────────────┼────────────────────────┼───────────────┤
│ dense_286 (Dense)               │ (None, 1, 100)         │        10,100 │
├─────────────────────────────────┼────────────────────────┼───────────────┤
│ flatten_95 (Flatten)            │ (None, 100)            │             0 │
├─────────────────────────────────┼────────────────────────┼───────────────┤
│ dense_287 (Dense)               │ (None, 1)              │           101 │
└─────────────────────────────────┴────────────────────────┴───────────────┘
 Total params: 10,401 (40.63 KB)
 Trainable params: 10,401 (40.63 KB)
 Non-trainable params: 0 (0.00 B)
Model: "sequential_96"
┏━━━━━━━━━━━━━━━━━━━━━━━━━━━━━━━━━┳━━━━━━━━━━━━━━━━━━━━━━━━┳━━━━━━━━━━━━━━━┓
┃ Layer (type)                    ┃ Output Shape           ┃       Param # ┃
┡━━━━━━━━━━━━━━━━━━━━━━━━━━━━━━━━━╇━━━━━━━━━━━━━━━━━━━━━━━━╇━━━━━━━━━━━━━━━┩
│ dense_288 (Dense)               │ (None, 100)            │         1,400 │
├─────────────────────────────────┼────────────────────────┼───────────────┤
│ dense_289 (Dense)               │ (None, 100)            │        10,100 │
├─────────────────────────────────┼────────────────────────┼───────────────┤
│ flatten_96 (Flatten)            │ (None, 100)            │             0 │
├─────────────────────────────────┼────────────────────────┼───────────────┤
│ dense_290 (Dense)               │ (None, 1)              │           101 │
└─────────────────────────────────┴────────────────────────┴───────────────┘
 Total params: 11,601 (45.32 KB)
 Trainable params: 11,601 (45.32 KB)
 Non-trainable params: 0 (0.00 B)
Model: "sequential_97"
┏━━━━━━━━━━━━━━━━━━━━━━━━━━━━━━━━━┳━━━━━━━━━━━━━━━━━━━━━━━━┳━━━━━━━━━━━━━━━┓
┃ Layer (type)                    ┃ Output Shape           ┃       Param # ┃
┡━━━━━━━━━━━━━━━━━━━━━━━━━━━━━━━━━╇━━━━━━━━━━━━━━━━━━━━━━━━╇━━━━━━━━━━━━━━━┩
│ dense_291 (Dense)               │ (None, 100)            │           400 │
├─────────────────────────────────┼────────────────────────┼───────────────┤
│ dense_292 (Dense)               │ (None, 100)            │        10,100 │
├─────────────────────────────────┼────────────────────────┼───────────────┤
│ flatten_97 (Flatten)            │ (None, 100)            │             0 │
├─────────────────────────────────┼────────────────────────┼───────────────┤
│ dense_293 (Dense)               │ (None, 1)              │           101 │
└─────────────────────────────────┴────────────────────────┴───────────────┘
 Total params: 10,601 (41.41 KB)
 Trainable params: 10,601 (41.41 KB)
 Non-trainable params: 0 (0.00 B)
Model: "sequential_98"
┏━━━━━━━━━━━━━━━━━━━━━━━━━━━━━━━━━┳━━━━━━━━━━━━━━━━━━━━━━━━┳━━━━━━━━━━━━━━━┓
┃ Layer (type)                    ┃ Output Shape           ┃       Param # ┃
┡━━━━━━━━━━━━━━━━━━━━━━━━━━━━━━━━━╇━━━━━━━━━━━━━━━━━━━━━━━━╇━━━━━━━━━━━━━━━┩
│ dense_294 (Dense)               │ (None, 6, 8, 100)      │         1,000 │
├─────────────────────────────────┼────────────────────────┼───────────────┤
│ dense_295 (Dense)               │ (None, 6, 8, 100)      │        10,100 │
├─────────────────────────────────┼────────────────────────┼───────────────┤
│ flatten_98 (Flatten)            │ (None, 4800)           │             0 │
├─────────────────────────────────┼────────────────────────┼───────────────┤
│ dense_296 (Dense)               │ (None, 1)              │         4,801 │
└─────────────────────────────────┴────────────────────────┴───────────────┘
 Total params: 15,901 (62.11 KB)
 Trainable params: 15,901 (62.11 KB)
 Non-trainable params: 0 (0.00 B)
Model: "sequential_99"
┏━━━━━━━━━━━━━━━━━━━━━━━━━━━━━━━━━┳━━━━━━━━━━━━━━━━━━━━━━━━┳━━━━━━━━━━━━━━━┓
┃ Layer (type)                    ┃ Output Shape           ┃       Param # ┃
┡━━━━━━━━━━━━━━━━━━━━━━━━━━━━━━━━━╇━━━━━━━━━━━━━━━━━━━━━━━━╇━━━━━━━━━━━━━━━┩
│ dense_297 (Dense)               │ (None, 5, 100)         │           200 │
├─────────────────────────────────┼────────────────────────┼───────────────┤
│ dense_298 (Dense)               │ (None, 5, 100)         │        10,100 │
├─────────────────────────────────┼────────────────────────┼───────────────┤
│ flatten_99 (Flatten)            │ (None, 500)            │             0 │
├─────────────────────────────────┼────────────────────────┼───────────────┤
│ dense_299 (Dense)               │ (None, 1)              │           501 │
└─────────────────────────────────┴────────────────────────┴───────────────┘
 Total params: 10,801 (42.19 KB)
 Trainable params: 10,801 (42.19 KB)
 Non-trainable params: 0 (0.00 B)
2026-07-16 14:31:08.888658: W external/local_tsl/tsl/framework/cpu_allocator_impl.cc:83] Allocation of 18874368 exceeds 10% of free system memory.
2026-07-16 14:31:15.875087: W external/local_tsl/tsl/framework/cpu_allocator_impl.cc:83] Allocation of 411041792 exceeds 10% of free system memory.
…
[1m 6/16[0m [32m━━━━━━━[0m[37m━━━━━━━━━━━━━[0m [1m0s[0m 34ms/step - accuracy: 0.1586 - loss: 2.2843[1m 8/16[0m [32m━━━━━━━━━━[0m[37m━━━━━━━━━━[0m [1m0s[0m 32ms/step - accuracy: 0.1550 - loss: 2.2841Model: "sequential"
┏━━━━━━━━━━━━━━━━━━━━━━━━━━━━━━━━━┳━━━━━━━━━━━━━━━━━━━━━━━━┳━━━━━━━━━━━━━━━┓
┃ Layer (type)                    ┃ Output Shape           ┃       Param # ┃
┡━━━━━━━━━━━━━━━━━━━━━━━━━━━━━━━━━╇━━━━━━━━━━━━━━━━━━━━━━━━╇━━━━━━━━━━━━━━━┩
│ dense (Dense)                   │ (None, 15, 11, 100)    │           900 │
├─────────────────────────────────┼────────────────────────┼───────────────┤
│ dense_1 (Dense)                 │ (None, 15, 11, 100)    │        10,100 │
├─────────────────────────────────┼────────────────────────┼───────────────┤
│ flatten (Flatten)               │ (None, 16500)          │             0 │
├─────────────────────────────────┼────────────────────────┼───────────────┤
│ dense_2 (Dense)                 │ (None, 1)              │        16,501 │
└─────────────────────────────────┴────────────────────────┴───────────────┘
 Total params: 27,501 (107.43 KB)
 Trainable params: 27,501 (107.43 KB)
 Non-trainable params: 0 (0.00 B)
[1m10/16[0m [32m━━━━━━━━━━━━[0m[37m━━━━━━━━[0m [1m0s[0m 32ms/step - accuracy: 0.1524 - loss: 2.2844[1m13/16[0m [32m━━━━━━━━━━━━━━━━[0m[37m━━━━[0m [1m0s[0m 28ms/step - accuracy: 0.1496 - loss: 2.2837Model: "sequential_1"
┏━━━━━━━━━━━━━━━━━━━━━━━━━━━━━━━━━┳━━━━━━━━━━━━━━━━━━━━━━━━┳━━━━━━━━━━━━━━━┓
┃ Layer (type)                    ┃ Output Shape           ┃       Param # ┃
┡━━━━━━━━━━━━━━━━━━━━━━━━━━━━━━━━━╇━━━━━━━━━━━━━━━━━━━━━━━━╇━━━━━━━━━━━━━━━┩
│ dense_3 (Dense)                 │ (None, 100)            │           800 │
├─────────────────────────────────┼────────────────────────┼───────────────┤
│ dense_4 (Dense)                 │ (None, 100)            │        10,100 │
├─────────────────────────────────┼────────────────────────┼───────────────┤
│ flatten_1 (Flatten)             │ (None, 100)            │             0 │
├─────────────────────────────────┼────────────────────────┼───────────────┤
│ dense_5 (Dense)                 │ (None, 1)              │           101 │
└─────────────────────────────────┴────────────────────────┴───────────────┘
 Total params: 11,001 (42.97 KB)
 Trainable params: 11,001 (42.97 KB)
 Non-trainable params: 0 (0.00 B)
[1m16/16[0m [32m━━━━━━━━━━━━━━━━━━━━[0m[37m[0m [1m1s[0m 28ms/step - accuracy: 0.1468 - loss: 2.2830 - val_accuracy: 0.1200 - val_loss: 2.3576
Epoch 4/5
Model: "sequential_2"
┏━━━━━━━━━━━━━━━━━━━━━━━━━━━━━━━━━┳━━━━━━━━━━━━━━━━━━━━━━━━┳━━━━━━━━━━━━━━━┓
┃ Layer (type)                    ┃ Output Shape           ┃       Param # ┃
┡━━━━━━━━━━━━━━━━━━━━━━━━━━━━━━━━━╇━━━━━━━━━━━━━━━━━━━━━━━━╇━━━━━━━━━━━━━━━┩
│ dense_6 (Dense)                 │ (None, 19, 100)        │         1,200 │
├─────────────────────────────────┼────────────────────────┼───────────────┤
│ dense_7 (Dense)                 │ (None, 19, 100)        │        10,100 │
├─────────────────────────────────┼────────────────────────┼───────────────┤
│ flatten_2 (Flatten)             │ (None, 1900)           │             0 │
├─────────────────────────────────┼────────────────────────┼───────────────┤
│ dense_8 (Dense)                 │ (None, 1)              │         1,901 │
└─────────────────────────────────┴────────────────────────┴───────────────┘
 Total params: 13,201 (51.57 KB)
 Trainable params: 13,201 (51.57 KB)
 Non-trainable params: 0 (0.00 B)
Model: "sequential_3"
┏━━━━━━━━━━━━━━━━━━━━━━━━━━━━━━━━━┳━━━━━━━━━━━━━━━━━━━━━━━━┳━━━━━━━━━━━━━━━┓
┃ Layer (type)                    ┃ Output Shape           ┃       Param # ┃
┡━━━━━━━━━━━━━━━━━━━━━━━━━━━━━━━━━╇━━━━━━━━━━━━━━━━━━━━━━━━╇━━━━━━━━━━━━━━━┩
│ dense_9 (Dense)                 │ (None, 4, 8, 100)      │           400 │
├─────────────────────────────────┼────────────────────────┼───────────────┤
│ dense_10 (Dense)                │ (None, 4, 8, 100)      │        10,100 │
├─────────────────────────────────┼────────────────────────┼───────────────┤
│ flatten_3 (Flatten)             │ (None, 3200)           │             0 │
├─────────────────────────────────┼────────────────────────┼───────────────┤
│ dense_11 (Dense)                │ (None, 1)              │         3,201 │
└─────────────────────────────────┴────────────────────────┴───────────────┘
 Total params: 13,701 (53.52 KB)
 Trainable params: 13,701 (53.52 KB)
 Non-trainable params: 0 (0.00 B)
[1m 1/16[0m [32m━[0m[37m━━━━━━━━━━━━━━━━━━━[0m [1m3s[0m 229ms/step - accuracy: 0.2031 - loss: 2.2653[1m 2/16[0m [32m━━[0m[37m━━━━━━━━━━━━━━━━━━[0m [1m0s[0m 71ms/step - accuracy: 0.1797 - loss: 2.2733 Model: "sequential_4"
┏━━━━━━━━━━━━━━━━━━━━━━━━━━━━━━━━━┳━━━━━━━━━━━━━━━━━━━━━━━━┳━━━━━━━━━━━━━━━┓
┃ Layer (type)                    ┃ Output Shape           ┃       Param # ┃
┡━━━━━━━━━━━━━━━━━━━━━━━━━━━━━━━━━╇━━━━━━━━━━━━━━━━━━━━━━━━╇━━━━━━━━━━━━━━━┩
│ dense_12 (Dense)                │ (None, 2, 100)         │         1,300 │
├─────────────────────────────────┼────────────────────────┼───────────────┤
│ dense_13 (Dense)                │ (None, 2, 100)         │        10,100 │
├─────────────────────────────────┼────────────────────────┼───────────────┤
│ flatten_4 (Flatten)             │ (None, 200)            │             0 │
├─────────────────────────────────┼────────────────────────┼───────────────┤
│ dense_14 (Dense)                │ (None, 1)              │           201 │
└─────────────────────────────────┴────────────────────────┴───────────────┘
[1m 5/16[0m [32m━━━━━━[0m[37m━━━━━━━━━━━━━━[0m [1m0s[0m 34ms/step - accuracy: 0.1723 - loss: 2.2692 Total params: 11,601 (45.32 KB)
 Trainable params: 11,601 (45.32 KB)
 Non-trainable params: 0 (0.00 B)

…
[1m 8/16[0m [32m━━━━━━━━━━[0m[37m━━━━━━━━━━[0m [1m0s[0m 42ms/step - accuracy: 0.1727 - loss: 2.2564[1m10/16[0m [32m━━━━━━━━━━━━[0m[37m━━━━━━━━[0m [1m0s[0m 39ms/step - accuracy: 0.1686 - loss: 2.2567Model: "sequential_6"
┏━━━━━━━━━━━━━━━━━━━━━━━━━━━━━━━━━┳━━━━━━━━━━━━━━━━━━━━━━━━┳━━━━━━━━━━━━━━━┓
┃ Layer (type)                    ┃ Output Shape           ┃       Param # ┃
┡━━━━━━━━━━━━━━━━━━━━━━━━━━━━━━━━━╇━━━━━━━━━━━━━━━━━━━━━━━━╇━━━━━━━━━━━━━━━┩
│ dense_18 (Dense)                │ (None, 100)            │           200 │
├─────────────────────────────────┼────────────────────────┼───────────────┤
│ dense_19 (Dense)                │ (None, 100)            │        10,100 │
├─────────────────────────────────┼────────────────────────┼───────────────┤
│ flatten_6 (Flatten)             │ (None, 100)            │             0 │
├─────────────────────────────────┼────────────────────────┼───────────────┤
│ dense_20 (Dense)                │ (None, 1)              │           101 │
└─────────────────────────────────┴────────────────────────┴───────────────┘
 Total params: 10,401 (40.63 KB)
 Trainable params: 10,401 (40.63 KB)
 Non-trainable params: 0 (0.00 B)
Model: "sequential_7"
┏━━━━━━━━━━━━━━━━━━━━━━━━━━━━━━━━━┳━━━━━━━━━━━━━━━━━━━━━━━━┳━━━━━━━━━━━━━━━┓
┃ Layer (type)                    ┃ Output Shape           ┃       Param # ┃
┡━━━━━━━━━━━━━━━━━━━━━━━━━━━━━━━━━╇━━━━━━━━━━━━━━━━━━━━━━━━╇━━━━━━━━━━━━━━━┩
│ dense_21 (Dense)                │ (None, 12, 100)        │         1,800 │
├─────────────────────────────────┼────────────────────────┼───────────────┤
│ dense_22 (Dense)                │ (None, 12, 100)        │        10,100 │
├─────────────────────────────────┼────────────────────────┼───────────────┤
│ flatten_7 (Flatten)             │ (None, 1200)           │             0 │
├─────────────────────────────────┼────────────────────────┼───────────────┤
│ dense_23 (Dense)                │ (None, 1)              │         1,201 │
└─────────────────────────────────┴────────────────────────┴───────────────┘
 Total params: 13,101 (51.18 KB)
 Trainable params: 13,101 (51.18 KB)
 Non-trainable params: 0 (0.00 B)
[1m12/16[0m [32m━━━━━━━━━━━━━━━[0m[37m━━━━━[0m [1m0s[0m 38ms/step - accuracy: 0.1658 - loss: 2.2564[1m15/16[0m [32m━━━━━━━━━━━━━━━━━━[0m[37m━━[0m [1m0s[0m 35ms/step - accuracy: 0.1623 - loss: 2.2559Model: "sequential_8"
┏━━━━━━━━━━━━━━━━━━━━━━━━━━━━━━━━━┳━━━━━━━━━━━━━━━━━━━━━━━━┳━━━━━━━━━━━━━━━┓
┃ Layer (type)                    ┃ Output Shape           ┃       Param # ┃
┡━━━━━━━━━━━━━━━━━━━━━━━━━━━━━━━━━╇━━━━━━━━━━━━━━━━━━━━━━━━╇━━━━━━━━━━━━━━━┩
│ dense_24 (Dense)                │ (None, 10, 16, 100)    │         1,600 │
├─────────────────────────────────┼────────────────────────┼───────────────┤
│ dense_25 (Dense)                │ (None, 10, 16, 100)    │        10,100 │
├─────────────────────────────────┼────────────────────────┼───────────────┤
│ flatten_8 (Flatten)             │ (None, 16000)          │             0 │
├─────────────────────────────────┼────────────────────────┼───────────────┤
│ dense_26 (Dense)                │ (None, 1)              │        16,001 │
└─────────────────────────────────┴────────────────────────┴───────────────┘
 Total params: 27,701 (108.21 KB)
 Trainable params: 27,701 (108.21 KB)
 Non-trainable params: 0 (0.00 B)
[1m16/16[0m [32m━━━━━━━━━━━━━━━━━━━━[0m[37m[0m [1m1s[0m 50ms/step - accuracy: 0.1609 - loss: 2.2555 - val_accuracy: 0.1000 - val_loss: 2.3581
Model: "sequential_9"
┏━━━━━━━━━━━━━━━━━━━━━━━━━━━━━━━━━┳━━━━━━━━━━━━━━━━━━━━━━━━┳━━━━━━━━━━━━━━━┓
┃ Layer (type)                    ┃ Output Shape           ┃       Param # ┃
┡━━━━━━━━━━━━━━━━━━━━━━━━━━━━━━━━━╇━━━━━━━━━━━━━━━━━━━━━━━━╇━━━━━━━━━━━━━━━┩
│ dense_27 (Dense)                │ (None, 15, 100)        │         2,000 │
├─────────────────────────────────┼────────────────────────┼───────────────┤
│ dense_28 (Dense)                │ (None, 15, 100)        │        10,100 │
├─────────────────────────────────┼────────────────────────┼───────────────┤
│ flatten_9 (Flatten)             │ (None, 1500)           │             0 │
├─────────────────────────────────┼────────────────────────┼───────────────┤
│ dense_29 (Dense)                │ (None, 1)              │         1,501 │
└─────────────────────────────────┴────────────────────────┴───────────────┘
 Total params: 13,601 (53.13 KB)
 Trainable params: 13,601 (53.13 KB)
 Non-trainable params: 0 (0.00 B)
Model: "sequential_10"
┏━━━━━━━━━━━━━━━━━━━━━━━━━━━━━━━━━┳━━━━━━━━━━━━━━━━━━━━━━━━┳━━━━━━━━━━━━━━━┓
┃ Layer (type)                    ┃ Output Shape           ┃       Param # ┃
┡━━━━━━━━━━━━━━━━━━━━━━━━━━━━━━━━━╇━━━━━━━━━━━━━━━━━━━━━━━━╇━━━━━━━━━━━━━━━┩
│ dense_30 (Dense)                │ (None, 3, 5, 100)      │         2,000 │
├─────────────────────────────────┼────────────────────────┼───────────────┤
│ dense_31 (Dense)                │ (None, 3, 5, 100)      │        10,100 │
├─────────────────────────────────┼────────────────────────┼───────────────┤
│ flatten_10 (Flatten)            │ (None, 1500)           │             0 │
├─────────────────────────────────┼────────────────────────┼───────────────┤
│ dense_32 (Dense)                │ (None, 1)              │         1,501 │
└─────────────────────────────────┴────────────────────────┴───────────────┘
 Total params: 13,601 (53.13 KB)
 Trainable params: 13,601 (53.13 KB)
 Non-trainable params: 0 (0.00 B)
Model: "sequential_11"
┏━━━━━━━━━━━━━━━━━━━━━━━━━━━━━━━━━┳━━━━━━━━━━━━━━━━━━━━━━━━┳━━━━━━━━━━━━━━━┓
┃ Layer (type)                    ┃ Output Shape           ┃       Param # ┃
┡━━━━━━━━━━━━━━━━━━━━━━━━━━━━━━━━━╇━━━━━━━━━━━━━━━━━━━━━━━━╇━━━━━━━━━━━━━━━┩
│ dense_33 (Dense)                │ (None, 9, 7, 100)      │         1,900 │
├─────────────────────────────────┼────────────────────────┼───────────────┤
│ dense_34 (Dense)                │ (None, 9, 7, 100)      │        10,100 │
├─────────────────────────────────┼────────────────────────┼───────────────┤
│ flatten_11 (Flatten)            │ (None, 6300)           │             0 │
├─────────────────────────────────┼────────────────────────┼───────────────┤
│ dense_35 (Dense)                │ (None, 1)              │         6,301 │
└─────────────────────────────────┴────────────────────────┴───────────────┘
 Total params: 18,301 (71.49 KB)
 Trainable params: 18,301 (71.49 KB)
 Non-trainable params: 0 (0.00 B)
Model: "sequential_12"
┏━━━━━━━━━━━━━━━━━━━━━━━━━━━━━━━━━┳━━━━━━━━━━━━━━━━━━━━━━━━┳━━━━━━━━━━━━━━━┓
┃ Layer (type)                    ┃ Output Shape           ┃       Param # ┃
┡━━━━━━━━━━━━━━━━━━━━━━━━━━━━━━━━━╇━━━━━━━━━━━━━━━━━━━━━━━━╇━━━━━━━━━━━━━━━┩
│ dense_36 (Dense)                │ (None, 100)            │         1,500 │
├─────────────────────────────────┼────────────────────────┼───────────────┤
│ dense_37 (Dense)                │ (None, 100)            │        10,100 │
├─────────────────────────────────┼────────────────────────┼───────────────┤
│ flatten_12 (Flatten)            │ (None, 100)            │             0 │
├─────────────────────────────────┼────────────────────────┼───────────────┤
│ dense_38 (Dense)                │ (None, 1)              │           101 │
└─────────────────────────────────┴────────────────────────┴───────────────┘
 Total params: 11,701 (45.71 KB)
 Trainable params: 11,701 (45.71 KB)
 Non-trainable params: 0 (0.00 B)
Model: "sequential_13"
┏━━━━━━━━━━━━━━━━━━━━━━━━━━━━━━━━━┳━━━━━━━━━━━━━━━━━━━━━━━━┳━━━━━━━━━━━━━━━┓
┃ Layer (type)                    ┃ Output Shape           ┃       Param # ┃
┡━━━━━━━━━━━━━━━━━━━━━━━━━━━━━━━━━╇━━━━━━━━━━━━━━━━━━━━━━━━╇━━━━━━━━━━━━━━━┩
│ dense_39 (Dense)                │ (None, 9, 100)         │           300 │
├─────────────────────────────────┼────────────────────────┼───────────────┤
│ dense_40 (Dense)                │ (None, 9, 100)         │        10,100 │
├─────────────────────────────────┼────────────────────────┼───────────────┤
│ flatten_13 (Flatten)            │ (None, 900)            │             0 │
├─────────────────────────────────┼────────────────────────┼───────────────┤
│ dense_41 (Dense)                │ (None, 1)              │           901 │
└─────────────────────────────────┴────────────────────────┴───────────────┘
 Total params: 11,301 (44.14 KB)
 Trainable params: 11,301 (44.14 KB)
 Non-trainable params: 0 (0.00 B)
Model: "sequential_14"
┏━━━━━━━━━━━━━━━━━━━━━━━━━━━━━━━━━┳━━━━━━━━━━━━━━━━━━━━━━━━┳━━━━━━━━━━━━━━━┓
┃ Layer (type)                    ┃ Output Shape           ┃       Param # ┃
┡━━━━━━━━━━━━━━━━━━━━━━━━━━━━━━━━━╇━━━━━━━━━━━━━━━━━━━━━━━━╇━━━━━━━━━━━━━━━┩
│ dense_42 (Dense)                │ (None, 7, 12, 100)     │           900 │
├─────────────────────────────────┼────────────────────────┼───────────────┤
│ dense_43 (Dense)                │ (None, 7, 12, 100)     │        10,100 │
├─────────────────────────────────┼────────────────────────┼───────────────┤
│ flatten_14 (Flatten)            │ (None, 8400)           │             0 │
├─────────────────────────────────┼────────────────────────┼───────────────┤
│ dense_44 (Dense)                │ (None, 1)              │         8,401 │
└─────────────────────────────────┴────────────────────────┴───────────────┘
 Total params: 19,401 (75.79 KB)
 Trainable params: 19,401 (75.79 KB)
 Non-trainable params: 0 (0.00 B)
Model: "sequential_15"
┏━━━━━━━━━━━━━━━━━━━━━━━━━━━━━━━━━┳━━━━━━━━━━━━━━━━━━━━━━━━┳━━━━━━━━━━━━━━━┓
┃ Layer (type)                    ┃ Output Shape           ┃       Param # ┃
┡━━━━━━━━━━━━━━━━━━━━━━━━━━━━━━━━━╇━━━━━━━━━━━━━━━━━━━━━━━━╇━━━━━━━━━━━━━━━┩
│ dense_45 (Dense)                │ (None, 3, 14, 100)     │         1,800 │
├─────────────────────────────────┼────────────────────────┼───────────────┤
│ dense_46 (Dense)                │ (None, 3, 14, 100)     │        10,100 │
├─────────────────────────────────┼────────────────────────┼───────────────┤
│ flatten_15 (Flatten)            │ (None, 4200)           │             0 │
├─────────────────────────────────┼────────────────────────┼───────────────┤
│ dense_47 (Dense)                │ (None, 1)              │         4,201 │
└─────────────────────────────────┴────────────────────────┴───────────────┘
 Total params: 16,101 (62.89 KB)
 Trainable params: 16,101 (62.89 KB)
 Non-trainable params: 0 (0.00 B)
Model: "sequential_16"
┏━━━━━━━━━━━━━━━━━━━━━━━━━━━━━━━━━┳━━━━━━━━━━━━━━━━━━━━━━━━┳━━━━━━━━━━━━━━━┓
┃ Layer (type)                    ┃ Output Shape           ┃       Param # ┃
┡━━━━━━━━━━━━━━━━━━━━━━━━━━━━━━━━━╇━━━━━━━━━━━━━━━━━━━━━━━━╇━━━━━━━━━━━━━━━┩
│ dense_48 (Dense)                │ (None, 8, 100)         │           500 │
├─────────────────────────────────┼────────────────────────┼───────────────┤
│ dense_49 (Dense)                │ (None, 8, 100)         │        10,100 │
├─────────────────────────────────┼────────────────────────┼───────────────┤
│ flatten_16 (Flatten)            │ (None, 800)            │             0 │
├─────────────────────────────────┼────────────────────────┼───────────────┤
│ dense_50 (Dense)                │ (None, 1)              │           801 │
└─────────────────────────────────┴────────────────────────┴───────────────┘
 Total params: 11,401 (44.54 KB)
 Trainable params: 11,401 (44.54 KB)
 Non-trainable params: 0 (0.00 B)
Model: "sequential_17"
┏━━━━━━━━━━━━━━━━━━━━━━━━━━━━━━━━━┳━━━━━━━━━━━━━━━━━━━━━━━━┳━━━━━━━━━━━━━━━┓
┃ Layer (type)                    ┃ Output Shape           ┃       Param # ┃
┡━━━━━━━━━━━━━━━━━━━━━━━━━━━━━━━━━╇━━━━━━━━━━━━━━━━━━━━━━━━╇━━━━━━━━━━━━━━━┩
│ dense_51 (Dense)                │ (None, 6, 100)         │         1,100 │
├─────────────────────────────────┼────────────────────────┼───────────────┤
│ dense_52 (Dense)                │ (None, 6, 100)         │        10,100 │
├─────────────────────────────────┼────────────────────────┼───────────────┤
│ flatten_17 (Flatten)            │ (None, 600)            │             0 │
├─────────────────────────────────┼────────────────────────┼───────────────┤
│ dense_53 (Dense)                │ (None, 1)              │           601 │
└─────────────────────────────────┴────────────────────────┴───────────────┘
 Total params: 11,801 (46.10 KB)
 Trainable params: 11,801 (46.10 KB)
 Non-trainable params: 0 (0.00 B)
Model: "sequential_18"
┏━━━━━━━━━━━━━━━━━━━━━━━━━━━━━━━━━┳━━━━━━━━━━━━━━━━━━━━━━━━┳━━━━━━━━━━━━━━━┓
┃ Layer (type)                    ┃ Output Shape           ┃       Param # ┃
┡━━━━━━━━━━━━━━━━━━━━━━━━━━━━━━━━━╇━━━━━━━━━━━━━━━━━━━━━━━━╇━━━━━━━━━━━━━━━┩
│ dense_54 (Dense)                │ (None, 18, 100)        │         1,300 │
├─────────────────────────────────┼────────────────────────┼───────────────┤
│ dense_55 (Dense)                │ (None, 18, 100)        │        10,100 │
├─────────────────────────────────┼────────────────────────┼───────────────┤
│ flatten_18 (Flatten)            │ (None, 1800)           │             0 │
├─────────────────────────────────┼────────────────────────┼───────────────┤
│ dense_56 (Dense)                │ (None, 1)              │         1,801 │
└─────────────────────────────────┴────────────────────────┴───────────────┘
 Total params: 13,201 (51.57 KB)
 Trainable params: 13,201 (51.57 KB)
 Non-trainable params: 0 (0.00 B)
Model: "sequential_19"
┏━━━━━━━━━━━━━━━━━━━━━━━━━━━━━━━━━┳━━━━━━━━━━━━━━━━━━━━━━━━┳━━━━━━━━━━━━━━━┓
┃ Layer (type)                    ┃ Output Shape           ┃       Param # ┃
┡━━━━━━━━━━━━━━━━━━━━━━━━━━━━━━━━━╇━━━━━━━━━━━━━━━━━━━━━━━━╇━━━━━━━━━━━━━━━┩
│ dense_57 (Dense)                │ (None, 10, 100)        │           500 │
├─────────────────────────────────┼────────────────────────┼───────────────┤
│ dense_58 (Dense)                │ (None, 10, 100)        │        10,100 │
├─────────────────────────────────┼────────────────────────┼───────────────┤
│ flatten_19 (Flatten)            │ (None, 1000)           │             0 │
├─────────────────────────────────┼────────────────────────┼───────────────┤
│ dense_59 (Dense)                │ (None, 1)              │         1,001 │
└─────────────────────────────────┴────────────────────────┴───────────────┘
 Total params: 11,601 (45.32 KB)
 Trainable params: 11,601 (45.32 KB)
 Non-trainable params: 0 (0.00 B)
Model: "sequential_20"
┏━━━━━━━━━━━━━━━━━━━━━━━━━━━━━━━━━┳━━━━━━━━━━━━━━━━━━━━━━━━┳━━━━━━━━━━━━━━━┓
┃ Layer (type)                    ┃ Output Shape           ┃       Param # ┃
┡━━━━━━━━━━━━━━━━━━━━━━━━━━━━━━━━━╇━━━━━━━━━━━━━━━━━━━━━━━━╇━━━━━━━━━━━━━━━┩
│ dense_60 (Dense)                │ (None, 16, 100)        │         1,600 │
├─────────────────────────────────┼────────────────────────┼───────────────┤
│ dense_61 (Dense)                │ (None, 16, 100)        │        10,100 │
├─────────────────────────────────┼────────────────────────┼───────────────┤
│ flatten_20 (Flatten)            │ (None, 1600)           │             0 │
├─────────────────────────────────┼────────────────────────┼───────────────┤
│ dense_62 (Dense)                │ (None, 1)              │         1,601 │
└─────────────────────────────────┴────────────────────────┴───────────────┘
 Total params: 13,301 (51.96 KB)
 Trainable params: 13,301 (51.96 KB)
 Non-trainable params: 0 (0.00 B)
Model: "sequential_21"
┏━━━━━━━━━━━━━━━━━━━━━━━━━━━━━━━━━┳━━━━━━━━━━━━━━━━━━━━━━━━┳━━━━━━━━━━━━━━━┓
┃ Layer (type)                    ┃ Output Shape           ┃       Param # ┃
┡━━━━━━━━━━━━━━━━━━━━━━━━━━━━━━━━━╇━━━━━━━━━━━━━━━━━━━━━━━━╇━━━━━━━━━━━━━━━┩
│ dense_63 (Dense)                │ (None, 8, 100)         │         1,700 │
├─────────────────────────────────┼────────────────────────┼───────────────┤
│ dense_64 (Dense)                │ (None, 8, 100)         │        10,100 │
├─────────────────────────────────┼────────────────────────┼───────────────┤
│ flatten_21 (Flatten)            │ (None, 800)            │             0 │
├─────────────────────────────────┼────────────────────────┼───────────────┤
│ dense_65 (Dense)                │ (None, 1)              │           801 │
└─────────────────────────────────┴────────────────────────┴───────────────┘
 Total params: 12,601 (49.22 KB)
 Trainable params: 12,601 (49.22 KB)
 Non-trainable params: 0 (0.00 B)
Model: "sequential_22"
[1m1/4[0m [32m━━━━━[0m[37m━━━━━━━━━━━━━━━[0m [1m0s[0m 332ms/step - accuracy: 0.0625 - loss: 2.4763┏━━━━━━━━━━━━━━━━━━━━━━━━━━━━━━━━━┳━━━━━━━━━━━━━━━━━━━━━━━━┳━━━━━━━━━━━━━━━┓
┃ Layer (type)                    ┃ Output Shape           ┃       Param # ┃
┡━━━━━━━━━━━━━━━━━━━━━━━━━━━━━━━━━╇━━━━━━━━━━━━━━━━━━━━━━━━╇━━━━━━━━━━━━━━━┩
│ dense_66 (Dense)                │ (None, 100)            │         1,900 │
├─────────────────────────────────┼────────────────────────┼───────────────┤
│ dense_67 (Dense)                │ (None, 100)            │        10,100 │
├─────────────────────────────────┼────────────────────────┼───────────────┤
│ flatten_22 (Flatten)            │ (None, 100)            │             0 │
├─────────────────────────────────┼────────────────────────┼───────────────┤
│ dense_68 (Dense)                │ (None, 1)              │           101 │
└─────────────────────────────────┴────────────────────────┴───────────────┘
 Total params: 12,101 (47.27 KB)
[1m4/4[0m [32m━━━━━━━━━━━━━━━━━━━━[0m[37m[0m [1m0s[0m 9ms/step - accuracy: 0.0806 - loss: 2.3918  
 Trainable params: 12,101 (47.27 KB)
 Non-trainable params: 0 (0.00 B)
Model: "sequential_23"
┏━━━━━━━━━━━━━━━━━━━━━━━━━━━━━━━━━┳━━━━━━━━━━━━━━━━━━━━━━━━┳━━━━━━━━━━━━━━━┓
┃ Layer (type)                    ┃ Output Shape           ┃       Param # ┃
┡━━━━━━━━━━━━━━━━━━━━━━━━━━━━━━━━━╇━━━━━━━━━━━━━━━━━━━━━━━━╇━━━━━━━━━━━━━━━┩
│ dense_69 (Dense)                │ (None, 13, 9, 100)     │         1,600 │
├─────────────────────────────────┼────────────────────────┼───────────────┤
│ dense_70 (Dense)                │ (None, 13, 9, 100)     │        10,100 │
├─────────────────────────────────┼────────────────────────┼───────────────┤
│ flatten_23 (Flatten)            │ (None, 11700)          │             0 │
├─────────────────────────────────┼────────────────────────┼───────────────┤
│ dense_71 (Dense)                │ (None, 1)              │        11,701 │
└─────────────────────────────────┴────────────────────────┴───────────────┘
 Total params: 23,401 (91.41 KB)
 Trainable params: 23,401 (91.41 KB)
 Non-trainable params: 0 (0.00 B)
Model: "sequential_24"
┏━━━━━━━━━━━━━━━━━━━━━━━━━━━━━━━━━┳━━━━━━━━━━━━━━━━━━━━━━━━┳━━━━━━━━━━━━━━━┓
┃ Layer (type)                    ┃ Output Shape           ┃       Param # ┃
┡━━━━━━━━━━━━━━━━━━━━━━━━━━━━━━━━━╇━━━━━━━━━━━━━━━━━━━━━━━━╇━━━━━━━━━━━━━━━┩
│ dense_72 (Dense)                │ (None, 100)            │           200 │
├─────────────────────────────────┼────────────────────────┼───────────────┤
│ dense_73 (Dense)                │ (None, 100)            │        10,100 │
├─────────────────────────────────┼────────────────────────┼───────────────┤
│ flatten_24 (Flatten)            │ (None, 100)            │             0 │
├─────────────────────────────────┼────────────────────────┼───────────────┤
│ dense_74 (Dense)                │ (None, 1)              │           101 │
└─────────────────────────────────┴────────────────────────┴───────────────┘
 Total params: 10,401 (40.63 KB)
 Trainable params: 10,401 (40.63 KB)
 Non-trainable params: 0 (0.00 B)
Model: "sequential_25"
┏━━━━━━━━━━━━━━━━━━━━━━━━━━━━━━━━━┳━━━━━━━━━━━━━━━━━━━━━━━━┳━━━━━━━━━━━━━━━┓
┃ Layer (type)                    ┃ Output Shape           ┃       Param # ┃
┡━━━━━━━━━━━━━━━━━━━━━━━━━━━━━━━━━╇━━━━━━━━━━━━━━━━━━━━━━━━╇━━━━━━━━━━━━━━━┩
│ dense_75 (Dense)                │ (None, 100)            │           800 │
├─────────────────────────────────┼────────────────────────┼───────────────┤
│ dense_76 (Dense)                │ (None, 100)            │        10,100 │
├─────────────────────────────────┼────────────────────────┼───────────────┤
│ flatten_25 (Flatten)            │ (None, 100)            │             0 │
├─────────────────────────────────┼────────────────────────┼───────────────┤
│ dense_77 (Dense)                │ (None, 1)              │           101 │
└─────────────────────────────────┴────────────────────────┴───────────────┘
 Total params: 11,001 (42.97 KB)
 Trainable params: 11,001 (42.97 KB)
 Non-trainable params: 0 (0.00 B)
Model: "sequential_26"
┏━━━━━━━━━━━━━━━━━━━━━━━━━━━━━━━━━┳━━━━━━━━━━━━━━━━━━━━━━━━┳━━━━━━━━━━━━━━━┓
┃ Layer (type)                    ┃ Output Shape           ┃       Param # ┃
┡━━━━━━━━━━━━━━━━━━━━━━━━━━━━━━━━━╇━━━━━━━━━━━━━━━━━━━━━━━━╇━━━━━━━━━━━━━━━┩
│ dense_78 (Dense)                │ (None, 100)            │           200 │
├─────────────────────────────────┼────────────────────────┼───────────────┤
│ dense_79 (Dense)                │ (None, 100)            │        10,100 │
├─────────────────────────────────┼────────────────────────┼───────────────┤
│ flatten_26 (Flatten)            │ (None, 100)            │             0 │
├─────────────────────────────────┼────────────────────────┼───────────────┤
│ dense_80 (Dense)                │ (None, 1)              │           101 │
└─────────────────────────────────┴────────────────────────┴───────────────┘
 Total params: 10,401 (40.63 KB)
 Trainable params: 10,401 (40.63 KB)
 Non-trainable params: 0 (0.00 B)
Model: "sequential_27"
┏━━━━━━━━━━━━━━━━━━━━━━━━━━━━━━━━━┳━━━━━━━━━━━━━━━━━━━━━━━━┳━━━━━━━━━━━━━━━┓
┃ Layer (type)                    ┃ Output Shape           ┃       Param # ┃
┡━━━━━━━━━━━━━━━━━━━━━━━━━━━━━━━━━╇━━━━━━━━━━━━━━━━━━━━━━━━╇━━━━━━━━━━━━━━━┩
│ dense_81 (Dense)                │ (None, 11, 19, 100)    │         1,800 │
├─────────────────────────────────┼────────────────────────┼───────────────┤
│ dense_82 (Dense)                │ (None, 11, 19, 100)    │        10,100 │
├─────────────────────────────────┼────────────────────────┼───────────────┤
│ flatten_27 (Flatten)            │ (None, 20900)          │             0 │
├─────────────────────────────────┼────────────────────────┼───────────────┤
│ dense_83 (Dense)                │ (None, 1)              │        20,901 │
└─────────────────────────────────┴────────────────────────┴───────────────┘
 Total params: 32,801 (128.13 KB)
 Trainable params: 32,801 (128.13 KB)
 Non-trainable params: 0 (0.00 B)
Model: "sequential_28"
┏━━━━━━━━━━━━━━━━━━━━━━━━━━━━━━━━━┳━━━━━━━━━━━━━━━━━━━━━━━━┳━━━━━━━━━━━━━━━┓
┃ Layer (type)                    ┃ Output Shape           ┃       Param # ┃
┡━━━━━━━━━━━━━━━━━━━━━━━━━━━━━━━━━╇━━━━━━━━━━━━━━━━━━━━━━━━╇━━━━━━━━━━━━━━━┩
│ dense_84 (Dense)                │ (None, 3, 1, 100)      │           600 │
├─────────────────────────────────┼────────────────────────┼───────────────┤
│ dense_85 (Dense)                │ (None, 3, 1, 100)      │        10,100 │
├─────────────────────────────────┼────────────────────────┼───────────────┤
│ flatten_28 (Flatten)            │ (None, 300)            │             0 │
├─────────────────────────────────┼────────────────────────┼───────────────┤
│ dense_86 (Dense)                │ (None, 1)              │           301 │
└─────────────────────────────────┴────────────────────────┴───────────────┘
 Total params: 11,001 (42.97 KB)
 Trainable params: 11,001 (42.97 KB)
 Non-trainable params: 0 (0.00 B)
Model: "sequential_29"
┏━━━━━━━━━━━━━━━━━━━━━━━━━━━━━━━━━┳━━━━━━━━━━━━━━━━━━━━━━━━┳━━━━━━━━━━━━━━━┓
┃ Layer (type)                    ┃ Output Shape           ┃       Param # ┃
┡━━━━━━━━━━━━━━━━━━━━━━━━━━━━━━━━━╇━━━━━━━━━━━━━━━━━━━━━━━━╇━━━━━━━━━━━━━━━┩
│ dense_87 (Dense)                │ (None, 7, 100)         │         1,000 │
├─────────────────────────────────┼────────────────────────┼───────────────┤
│ dense_88 (Dense)                │ (None, 7, 100)         │        10,100 │
├─────────────────────────────────┼────────────────────────┼───────────────┤
│ flatten_29 (Flatten)            │ (None, 700)            │             0 │
├─────────────────────────────────┼────────────────────────┼───────────────┤
│ dense_89 (Dense)                │ (None, 1)              │           701 │
└─────────────────────────────────┴────────────────────────┴───────────────┘
 Total params: 11,801 (46.10 KB)
 Trainable params: 11,801 (46.10 KB)
 Non-trainable params: 0 (0.00 B)
Model: "sequential_30"
┏━━━━━━━━━━━━━━━━━━━━━━━━━━━━━━━━━┳━━━━━━━━━━━━━━━━━━━━━━━━┳━━━━━━━━━━━━━━━┓
┃ Layer (type)                    ┃ Output Shape           ┃       Param # ┃
┡━━━━━━━━━━━━━━━━━━━━━━━━━━━━━━━━━╇━━━━━━━━━━━━━━━━━━━━━━━━╇━━━━━━━━━━━━━━━┩
│ dense_90 (Dense)                │ (None, 9, 8, 100)      │         1,300 │
├─────────────────────────────────┼────────────────────────┼───────────────┤
│ dense_91 (Dense)                │ (None, 9, 8, 100)      │        10,100 │
├─────────────────────────────────┼────────────────────────┼───────────────┤
│ flatten_30 (Flatten)            │ (None, 7200)           │             0 │
├─────────────────────────────────┼────────────────────────┼───────────────┤
│ dense_92 (Dense)                │ (None, 1)              │         7,201 │
└─────────────────────────────────┴────────────────────────┴───────────────┘
 Total params: 18,601 (72.66 KB)
 Trainable params: 18,601 (72.66 KB)
 Non-trainable params: 0 (0.00 B)
Model: "sequential_31"
┏━━━━━━━━━━━━━━━━━━━━━━━━━━━━━━━━━┳━━━━━━━━━━━━━━━━━━━━━━━━┳━━━━━━━━━━━━━━━┓
┃ Layer (type)                    ┃ Output Shape           ┃       Param # ┃
┡━━━━━━━━━━━━━━━━━━━━━━━━━━━━━━━━━╇━━━━━━━━━━━━━━━━━━━━━━━━╇━━━━━━━━━━━━━━━┩
│ dense_93 (Dense)                │ (None, 1, 100)         │         1,700 │
├─────────────────────────────────┼────────────────────────┼───────────────┤
│ dense_94 (Dense)                │ (None, 1, 100)         │        10,100 │
├─────────────────────────────────┼────────────────────────┼───────────────┤
│ flatten_31 (Flatten)            │ (None, 100)            │             0 │
├─────────────────────────────────┼────────────────────────┼───────────────┤
│ dense_95 (Dense)                │ (None, 1)              │           101 │
└─────────────────────────────────┴────────────────────────┴───────────────┘
 Total params: 11,901 (46.49 KB)
 Trainable params: 11,901 (46.49 KB)
 Non-trainable params: 0 (0.00 B)
Model: "sequential_32"
┏━━━━━━━━━━━━━━━━━━━━━━━━━━━━━━━━━┳━━━━━━━━━━━━━━━━━━━━━━━━┳━━━━━━━━━━━━━━━┓
┃ Layer (type)                    ┃ Output Shape           ┃       Param # ┃
┡━━━━━━━━━━━━━━━━━━━━━━━━━━━━━━━━━╇━━━━━━━━━━━━━━━━━━━━━━━━╇━━━━━━━━━━━━━━━┩
│ dense_96 (Dense)                │ (None, 5, 3, 100)      │         1,300 │
├─────────────────────────────────┼────────────────────────┼───────────────┤
│ dense_97 (Dense)                │ (None, 5, 3, 100)      │        10,100 │
├─────────────────────────────────┼────────────────────────┼───────────────┤
│ flatten_32 (Flatten)            │ (None, 1500)           │             0 │
├─────────────────────────────────┼────────────────────────┼───────────────┤
│ dense_98 (Dense)                │ (None, 1)              │         1,501 │
└─────────────────────────────────┴────────────────────────┴───────────────┘
 Total params: 12,901 (50.39 KB)
 Trainable params: 12,901 (50.39 KB)
 Non-trainable params: 0 (0.00 B)
Model: "sequential_33"
┏━━━━━━━━━━━━━━━━━━━━━━━━━━━━━━━━━┳━━━━━━━━━━━━━━━━━━━━━━━━┳━━━━━━━━━━━━━━━┓
┃ Layer (type)                    ┃ Output Shape           ┃       Param # ┃
┡━━━━━━━━━━━━━━━━━━━━━━━━━━━━━━━━━╇━━━━━━━━━━━━━━━━━━━━━━━━╇━━━━━━━━━━━━━━━┩
│ dense_99 (Dense)                │ (None, 3, 100)         │           200 │
├─────────────────────────────────┼────────────────────────┼───────────────┤
│ dense_100 (Dense)               │ (None, 3, 100)         │        10,100 │
├─────────────────────────────────┼────────────────────────┼───────────────┤
│ flatten_33 (Flatten)            │ (None, 300)            │             0 │
├─────────────────────────────────┼────────────────────────┼───────────────┤
│ dense_101 (Dense)               │ (None, 1)              │           301 │
└─────────────────────────────────┴────────────────────────┴───────────────┘
 Total params: 10,601 (41.41 KB)
 Trainable params: 10,601 (41.41 KB)
 Non-trainable params: 0 (0.00 B)
Model: "sequential_34"
┏━━━━━━━━━━━━━━━━━━━━━━━━━━━━━━━━━┳━━━━━━━━━━━━━━━━━━━━━━━━┳━━━━━━━━━━━━━━━┓
┃ Layer (type)                    ┃ Output Shape           ┃       Param # ┃
┡━━━━━━━━━━━━━━━━━━━━━━━━━━━━━━━━━╇━━━━━━━━━━━━━━━━━━━━━━━━╇━━━━━━━━━━━━━━━┩
│ dense_102 (Dense)               │ (None, 5, 15, 100)     │         1,500 │
├─────────────────────────────────┼────────────────────────┼───────────────┤
│ dense_103 (Dense)               │ (None, 5, 15, 100)     │        10,100 │
├─────────────────────────────────┼────────────────────────┼───────────────┤
│ flatten_34 (Flatten)            │ (None, 7500)           │             0 │
├─────────────────────────────────┼────────────────────────┼───────────────┤
│ dense_104 (Dense)               │ (None, 1)              │         7,501 │
└─────────────────────────────────┴────────────────────────┴───────────────┘
 Total params: 19,101 (74.61 KB)
 Trainable params: 19,101 (74.61 KB)
 Non-trainable params: 0 (0.00 B)
Model: "sequential_35"
┏━━━━━━━━━━━━━━━━━━━━━━━━━━━━━━━━━┳━━━━━━━━━━━━━━━━━━━━━━━━┳━━━━━━━━━━━━━━━┓
┃ Layer (type)                    ┃ Output Shape           ┃       Param # ┃
┡━━━━━━━━━━━━━━━━━━━━━━━━━━━━━━━━━╇━━━━━━━━━━━━━━━━━━━━━━━━╇━━━━━━━━━━━━━━━┩
│ dense_105 (Dense)               │ (None, 1, 5, 100)      │         1,500 │
├─────────────────────────────────┼────────────────────────┼───────────────┤
│ dense_106 (Dense)               │ (None, 1, 5, 100)      │        10,100 │
├─────────────────────────────────┼────────────────────────┼───────────────┤
│ flatten_35 (Flatten)            │ (None, 500)            │             0 │
├─────────────────────────────────┼────────────────────────┼───────────────┤
│ dense_107 (Dense)               │ (None, 1)              │           501 │
└─────────────────────────────────┴────────────────────────┴───────────────┘
 Total params: 12,101 (47.27 KB)
 Trainable params: 12,101 (47.27 KB)
 Non-trainable params: 0 (0.00 B)
Model: "sequential_36"
Epoch 1/5
┏━━━━━━━━━━━━━━━━━━━━━━━━━━━━━━━━━┳━━━━━━━━━━━━━━━━━━━━━━━━┳━━━━━━━━━━━━━━━┓
┃ Layer (type)                    ┃ Output Shape           ┃       Param # ┃
┡━━━━━━━━━━━━━━━━━━━━━━━━━━━━━━━━━╇━━━━━━━━━━━━━━━━━━━━━━━━╇━━━━━━━━━━━━━━━┩
│ dense_108 (Dense)               │ (None, 9, 15, 100)     │         1,600 │
├─────────────────────────────────┼────────────────────────┼───────────────┤
│ dense_109 (Dense)               │ (None, 9, 15, 100)     │        10,100 │
├─────────────────────────────────┼────────────────────────┼───────────────┤
│ flatten_36 (Flatten)            │ (None, 13500)          │             0 │
├─────────────────────────────────┼────────────────────────┼───────────────┤
│ dense_110 (Dense)               │ (None, 1)              │        13,501 │
└─────────────────────────────────┴────────────────────────┴───────────────┘
 Total params: 25,201 (98.44 KB)
 Trainable params: 25,201 (98.44 KB)
 Non-trainable params: 0 (0.00 B)
Model: "sequential_37"
┏━━━━━━━━━━━━━━━━━━━━━━━━━━━━━━━━━┳━━━━━━━━━━━━━━━━━━━━━━━━┳━━━━━━━━━━━━━━━┓
┃ Layer (type)                    ┃ Output Shape           ┃       Param # ┃
┡━━━━━━━━━━━━━━━━━━━━━━━━━━━━━━━━━╇━━━━━━━━━━━━━━━━━━━━━━━━╇━━━━━━━━━━━━━━━┩
│ dense_111 (Dense)               │ (None, 10, 100)        │         1,400 │
├─────────────────────────────────┼────────────────────────┼───────────────┤
│ dense_112 (Dense)               │ (None, 10, 100)        │        10,100 │
├─────────────────────────────────┼────────────────────────┼───────────────┤
│ flatten_37 (Flatten)            │ (None, 1000)           │             0 │
├─────────────────────────────────┼────────────────────────┼───────────────┤
│ dense_113 (Dense)               │ (None, 1)              │         1,001 │
└─────────────────────────────────┴────────────────────────┴───────────────┘
 Total params: 12,501 (48.83 KB)
 Trainable params: 12,501 (48.83 KB)
 Non-trainable params: 0 (0.00 B)
Model: "sequential_38"
┏━━━━━━━━━━━━━━━━━━━━━━━━━━━━━━━━━┳━━━━━━━━━━━━━━━━━━━━━━━━┳━━━━━━━━━━━━━━━┓
┃ Layer (type)                    ┃ Output Shape           ┃       Param # ┃
┡━━━━━━━━━━━━━━━━━━━━━━━━━━━━━━━━━╇━━━━━━━━━━━━━━━━━━━━━━━━╇━━━━━━━━━━━━━━━┩
│ dense_114 (Dense)               │ (None, 7, 17, 100)     │           500 │
├─────────────────────────────────┼────────────────────────┼───────────────┤
│ dense_115 (Dense)               │ (None, 7, 17, 100)     │        10,100 │
├─────────────────────────────────┼────────────────────────┼───────────────┤
│ flatten_38 (Flatten)            │ (None, 11900)          │             0 │
├─────────────────────────────────┼────────────────────────┼───────────────┤
│ dense_116 (Dense)               │ (None, 1)              │        11,901 │
└─────────────────────────────────┴────────────────────────┴───────────────┘
 Total params: 22,501 (87.89 KB)
 Trainable params: 22,501 (87.89 KB)
 Non-trainable params: 0 (0.00 B)
Model: "sequential_39"
┏━━━━━━━━━━━━━━━━━━━━━━━━━━━━━━━━━┳━━━━━━━━━━━━━━━━━━━━━━━━┳━━━━━━━━━━━━━━━┓
┃ Layer (type)                    ┃ Output Shape           ┃       Param # ┃
┡━━━━━━━━━━━━━━━━━━━━━━━━━━━━━━━━━╇━━━━━━━━━━━━━━━━━━━━━━━━╇━━━━━━━━━━━━━━━┩
│ dense_117 (Dense)               │ (None, 5, 100)         │           800 │
├─────────────────────────────────┼────────────────────────┼───────────────┤
│ dense_118 (Dense)               │ (None, 5, 100)         │        10,100 │
├─────────────────────────────────┼────────────────────────┼───────────────┤
│ flatten_39 (Flatten)            │ (None, 500)            │             0 │
├─────────────────────────────────┼────────────────────────┼───────────────┤
│ dense_119 (Dense)               │ (None, 1)              │           501 │
└─────────────────────────────────┴────────────────────────┴───────────────┘
 Total params: 11,401 (44.54 KB)
 Trainable params: 11,401 (44.54 KB)
 Non-trainable params: 0 (0.00 B)
Model: "sequential_40"
┏━━━━━━━━━━━━━━━━━━━━━━━━━━━━━━━━━┳━━━━━━━━━━━━━━━━━━━━━━━━┳━━━━━━━━━━━━━━━┓
┃ Layer (type)                    ┃ Output Shape           ┃       Param # ┃
┡━━━━━━━━━━━━━━━━━━━━━━━━━━━━━━━━━╇━━━━━━━━━━━━━━━━━━━━━━━━╇━━━━━━━━━━━━━━━┩
│ dense_120 (Dense)               │ (None, 100)            │         1,600 │
├─────────────────────────────────┼────────────────────────┼───────────────┤
│ dense_121 (Dense)               │ (None, 100)            │        10,100 │
├─────────────────────────────────┼────────────────────────┼───────────────┤
│ flatten_40 (Flatten)            │ (None, 100)            │             0 │
├─────────────────────────────────┼────────────────────────┼───────────────┤
│ dense_122 (Dense)               │ (None, 1)              │           101 │
└─────────────────────────────────┴────────────────────────┴───────────────┘
 Total params: 11,801 (46.10 KB)
 Trainable params: 11,801 (46.10 KB)
 Non-trainable params: 0 (0.00 B)
Model: "sequential_41"
┏━━━━━━━━━━━━━━━━━━━━━━━━━━━━━━━━━┳━━━━━━━━━━━━━━━━━━━━━━━━┳━━━━━━━━━━━━━━━┓
┃ Layer (type)                    ┃ Output Shape           ┃       Param # ┃
┡━━━━━━━━━━━━━━━━━━━━━━━━━━━━━━━━━╇━━━━━━━━━━━━━━━━━━━━━━━━╇━━━━━━━━━━━━━━━┩
│ dense_123 (Dense)               │ (None, 4, 13, 100)     │           800 │
├─────────────────────────────────┼────────────────────────┼───────────────┤
│ dense_124 (Dense)               │ (None, 4, 13, 100)     │        10,100 │
├─────────────────────────────────┼────────────────────────┼───────────────┤
│ flatten_41 (Flatten)            │ (None, 5200)           │             0 │
├─────────────────────────────────┼────────────────────────┼───────────────┤
│ dense_125 (Dense)               │ (None, 1)              │         5,201 │
└─────────────────────────────────┴────────────────────────┴───────────────┘
 Total params: 16,101 (62.89 KB)
 Trainable params: 16,101 (62.89 KB)
 Non-trainable params: 0 (0.00 B)
Model: "sequential_42"
┏━━━━━━━━━━━━━━━━━━━━━━━━━━━━━━━━━┳━━━━━━━━━━━━━━━━━━━━━━━━┳━━━━━━━━━━━━━━━┓
┃ Layer (type)                    ┃ Output Shape           ┃       Param # ┃
┡━━━━━━━━━━━━━━━━━━━━━━━━━━━━━━━━━╇━━━━━━━━━━━━━━━━━━━━━━━━╇━━━━━━━━━━━━━━━┩
│ dense_126 (Dense)               │ (None, 19, 2, 100)     │         1,100 │
├─────────────────────────────────┼────────────────────────┼───────────────┤
│ dense_127 (Dense)               │ (None, 19, 2, 100)     │        10,100 │
├─────────────────────────────────┼────────────────────────┼───────────────┤
│ flatten_42 (Flatten)            │ (None, 3800)           │             0 │
├─────────────────────────────────┼────────────────────────┼───────────────┤
│ dense_128 (Dense)               │ (None, 1)              │         3,801 │
└─────────────────────────────────┴────────────────────────┴───────────────┘
 Total params: 15,001 (58.60 KB)
 Trainable params: 15,001 (58.60 KB)
 Non-trainable params: 0 (0.00 B)
Model: "sequential_43"
┏━━━━━━━━━━━━━━━━━━━━━━━━━━━━━━━━━┳━━━━━━━━━━━━━━━━━━━━━━━━┳━━━━━━━━━━━━━━━┓
┃ Layer (type)                    ┃ Output Shape           ┃       Param # ┃
┡━━━━━━━━━━━━━━━━━━━━━━━━━━━━━━━━━╇━━━━━━━━━━━━━━━━━━━━━━━━╇━━━━━━━━━━━━━━━┩
│ dense_129 (Dense)               │ (None, 100)            │           700 │
├─────────────────────────────────┼────────────────────────┼───────────────┤
│ dense_130 (Dense)               │ (None, 100)            │        10,100 │
├─────────────────────────────────┼────────────────────────┼───────────────┤
│ flatten_43 (Flatten)            │ (None, 100)            │             0 │
├─────────────────────────────────┼────────────────────────┼───────────────┤
│ dense_131 (Dense)               │ (None, 1)              │           101 │
└─────────────────────────────────┴────────────────────────┴───────────────┘
 Total params: 10,901 (42.58 KB)
 Trainable params: 10,901 (42.58 KB)
 Non-trainable params: 0 (0.00 B)
Model: "sequential_44"
┏━━━━━━━━━━━━━━━━━━━━━━━━━━━━━━━━━┳━━━━━━━━━━━━━━━━━━━━━━━━┳━━━━━━━━━━━━━━━┓
┃ Layer (type)                    ┃ Output Shape           ┃       Param # ┃
┡━━━━━━━━━━━━━━━━━━━━━━━━━━━━━━━━━╇━━━━━━━━━━━━━━━━━━━━━━━━╇━━━━━━━━━━━━━━━┩
│ dense_132 (Dense)               │ (None, 11, 100)        │           800 │
├─────────────────────────────────┼────────────────────────┼───────────────┤
│ dense_133 (Dense)               │ (None, 11, 100)        │        10,100 │
├─────────────────────────────────┼────────────────────────┼───────────────┤
│ flatten_44 (Flatten)            │ (None, 1100)           │             0 │
├─────────────────────────────────┼────────────────────────┼───────────────┤
│ dense_134 (Dense)               │ (None, 1)              │         1,101 │
└─────────────────────────────────┴────────────────────────┴───────────────┘
 Total params: 12,001 (46.88 KB)
 Trainable params: 12,001 (46.88 KB)
 Non-trainable params: 0 (0.00 B)
Model: "sequential_45"
┏━━━━━━━━━━━━━━━━━━━━━━━━━━━━━━━━━┳━━━━━━━━━━━━━━━━━━━━━━━━┳━━━━━━━━━━━━━━━┓
┃ Layer (type)                    ┃ Output Shape           ┃       Param # ┃
┡━━━━━━━━━━━━━━━━━━━━━━━━━━━━━━━━━╇━━━━━━━━━━━━━━━━━━━━━━━━╇━━━━━━━━━━━━━━━┩
│ dense_135 (Dense)               │ (None, 1, 100)         │           200 │
├─────────────────────────────────┼────────────────────────┼───────────────┤
│ dense_136 (Dense)               │ (None, 1, 100)         │        10,100 │
├─────────────────────────────────┼────────────────────────┼───────────────┤
│ flatten_45 (Flatten)            │ (None, 100)            │             0 │
├─────────────────────────────────┼────────────────────────┼───────────────┤
│ dense_137 (Dense)               │ (None, 1)              │           101 │
└─────────────────────────────────┴────────────────────────┴───────────────┘
 Total params: 10,401 (40.63 KB)
 Trainable params: 10,401 (40.63 KB)
 Non-trainable params: 0 (0.00 B)
Model: "sequential_46"
┏━━━━━━━━━━━━━━━━━━━━━━━━━━━━━━━━━┳━━━━━━━━━━━━━━━━━━━━━━━━┳━━━━━━━━━━━━━━━┓
┃ Layer (type)                    ┃ Output Shape           ┃       Param # ┃
┡━━━━━━━━━━━━━━━━━━━━━━━━━━━━━━━━━╇━━━━━━━━━━━━━━━━━━━━━━━━╇━━━━━━━━━━━━━━━┩
│ dense_138 (Dense)               │ (None, 100)            │         1,400 │
├─────────────────────────────────┼────────────────────────┼───────────────┤
│ dense_139 (Dense)               │ (None, 100)            │        10,100 │
├─────────────────────────────────┼────────────────────────┼───────────────┤
│ flatten_46 (Flatten)            │ (None, 100)            │             0 │
├─────────────────────────────────┼────────────────────────┼───────────────┤
│ dense_140 (Dense)               │ (None, 1)              │           101 │
└─────────────────────────────────┴────────────────────────┴───────────────┘
 Total params: 11,601 (45.32 KB)
 Trainable params: 11,601 (45.32 KB)
 Non-trainable params: 0 (0.00 B)
Model: "sequential_47"
┏━━━━━━━━━━━━━━━━━━━━━━━━━━━━━━━━━┳━━━━━━━━━━━━━━━━━━━━━━━━┳━━━━━━━━━━━━━━━┓
┃ Layer (type)                    ┃ Output Shape           ┃       Param # ┃
┡━━━━━━━━━━━━━━━━━━━━━━━━━━━━━━━━━╇━━━━━━━━━━━━━━━━━━━━━━━━╇━━━━━━━━━━━━━━━┩
│ dense_141 (Dense)               │ (None, 100)            │           400 │
├─────────────────────────────────┼────────────────────────┼───────────────┤
│ dense_142 (Dense)               │ (None, 100)            │        10,100 │
├─────────────────────────────────┼────────────────────────┼───────────────┤
│ flatten_47 (Flatten)            │ (None, 100)            │             0 │
├─────────────────────────────────┼────────────────────────┼───────────────┤
│ dense_143 (Dense)               │ (None, 1)              │           101 │
└─────────────────────────────────┴────────────────────────┴───────────────┘
 Total params: 10,601 (41.41 KB)
 Trainable params: 10,601 (41.41 KB)
 Non-trainable params: 0 (0.00 B)
Model: "sequential_48"
┏━━━━━━━━━━━━━━━━━━━━━━━━━━━━━━━━━┳━━━━━━━━━━━━━━━━━━━━━━━━┳━━━━━━━━━━━━━━━┓
┃ Layer (type)                    ┃ Output Shape           ┃       Param # ┃
┡━━━━━━━━━━━━━━━━━━━━━━━━━━━━━━━━━╇━━━━━━━━━━━━━━━━━━━━━━━━╇━━━━━━━━━━━━━━━┩
│ dense_144 (Dense)               │ (None, 6, 8, 100)      │         1,000 │
├─────────────────────────────────┼────────────────────────┼───────────────┤
│ dense_145 (Dense)               │ (None, 6, 8, 100)      │        10,100 │
├─────────────────────────────────┼────────────────────────┼───────────────┤
│ flatten_48 (Flatten)            │ (None, 4800)           │             0 │
├─────────────────────────────────┼────────────────────────┼───────────────┤
│ dense_146 (Dense)               │ (None, 1)              │         4,801 │
└─────────────────────────────────┴────────────────────────┴───────────────┘
 Total params: 15,901 (62.11 KB)
 Trainable params: 15,901 (62.11 KB)
 Non-trainable params: 0 (0.00 B)
Model: "sequential_49"
┏━━━━━━━━━━━━━━━━━━━━━━━━━━━━━━━━━┳━━━━━━━━━━━━━━━━━━━━━━━━┳━━━━━━━━━━━━━━━┓
┃ Layer (type)                    ┃ Output Shape           ┃       Param # ┃
┡━━━━━━━━━━━━━━━━━━━━━━━━━━━━━━━━━╇━━━━━━━━━━━━━━━━━━━━━━━━╇━━━━━━━━━━━━━━━┩
│ dense_147 (Dense)               │ (None, 5, 100)         │           200 │
├─────────────────────────────────┼────────────────────────┼───────────────┤
│ dense_148 (Dense)               │ (None, 5, 100)         │        10,100 │
├─────────────────────────────────┼────────────────────────┼───────────────┤
│ flatten_49 (Flatten)            │ (None, 500)            │             0 │
├─────────────────────────────────┼────────────────────────┼───────────────┤
│ dense_149 (Dense)               │ (None, 1)              │           501 │
└─────────────────────────────────┴────────────────────────┴───────────────┘
 Total params: 10,801 (42.19 KB)
 Trainable params: 10,801 (42.19 KB)
 Non-trainable params: 0 (0.00 B)
[1m 1/16[0m [32m━[0m[37m━━━━━━━━━━━━━━━━━━━[0m [1m17s[0m 1s/step - accuracy: 0.1250 - loss: 2.3947Model: "sequential_50"
┏━━━━━━━━━━━━━━━━━━━━━━━━━━━━━━━━━┳━━━━━━━━━━━━━━━━━━━━━━━━┳━━━━━━━━━━━━━━━┓
┃ Layer (type)                    ┃ Output Shape           ┃       Param # ┃
┡━━━━━━━━━━━━━━━━━━━━━━━━━━━━━━━━━╇━━━━━━━━━━━━━━━━━━━━━━━━╇━━━━━━━━━━━━━━━┩
│ dense_150 (Dense)               │ (None, 15, 11, 100)    │           900 │
├─────────────────────────────────┼────────────────────────┼───────────────┤
│ dense_151 (Dense)               │ (None, 15, 11, 100)    │        10,100 │
├─────────────────────────────────┼────────────────────────┼───────────────┤
│ flatten_50 (Flatten)            │ (None, 16500)          │             0 │
├─────────────────────────────────┼────────────────────────┼───────────────┤
│ dense_152 (Dense)               │ (None, 1)              │        16,501 │
└─────────────────────────────────┴────────────────────────┴───────────────┘
 Total params: 27,501 (107.43 KB)
 Trainable params: 27,501 (107.43 KB)
 Non-trainable params: 0 (0.00 B)
[1m 3/16[0m [32m━━━[0m[37m━━━━━━━━━━━━━━━━━[0m [1m0s[0m 45ms/step - accuracy: 0.1189 - loss: 2.3966Model: "sequential_51"
┏━━━━━━━━━━━━━━━━━━━━━━━━━━━━━━━━━┳━━━━━━━━━━━━━━━━━━━━━━━━┳━━━━━━━━━━━━━━━┓
┃ Layer (type)                    ┃ Output Shape           ┃       Param # ┃
┡━━━━━━━━━━━━━━━━━━━━━━━━━━━━━━━━━╇━━━━━━━━━━━━━━━━━━━━━━━━╇━━━━━━━━━━━━━━━┩
│ dense_153 (Dense)               │ (None, 100)            │           800 │
…
└─────────────────────────────────┴────────────────────────┴───────────────┘
 Total params: 11,601 (45.32 KB)
 Trainable params: 11,601 (45.32 KB)
 Non-trainable params: 0 (0.00 B)
[1m 9/16[0m [32m━━━━━━━━━━━[0m[37m━━━━━━━━━[0m [1m0s[0m 55ms/step - accuracy: 0.1094 - loss: 2.3687[1m11/16[0m [32m━━━━━━━━━━━━━[0m[37m━━━━━━━[0m [1m0s[0m 50ms/step - accuracy: 0.1097 - loss: 2.3626Model: "sequential_55"
┏━━━━━━━━━━━━━━━━━━━━━━━━━━━━━━━━━┳━━━━━━━━━━━━━━━━━━━━━━━━┳━━━━━━━━━━━━━━━┓
┃ Layer (type)                    ┃ Output Shape           ┃       Param # ┃
┡━━━━━━━━━━━━━━━━━━━━━━━━━━━━━━━━━╇━━━━━━━━━━━━━━━━━━━━━━━━╇━━━━━━━━━━━━━━━┩
│ dense_165 (Dense)               │ (None, 6, 100)         │           300 │
├─────────────────────────────────┼────────────────────────┼───────────────┤
│ dense_166 (Dense)               │ (None, 6, 100)         │        10,100 │
├─────────────────────────────────┼────────────────────────┼───────────────┤
│ flatten_55 (Flatten)            │ (None, 600)            │             0 │
├─────────────────────────────────┼────────────────────────┼───────────────┤
│ dense_167 (Dense)               │ (None, 1)              │           601 │
└─────────────────────────────────┴────────────────────────┴───────────────┘
 Total params: 11,001 (42.97 KB)
 Trainable params: 11,001 (42.97 KB)
 Non-trainable params: 0 (0.00 B)
[1m13/16[0m [32m━━━━━━━━━━━━━━━━[0m[37m━━━━[0m [1m0s[0m 46ms/step - accuracy: 0.1098 - loss: 2.3578[1m15/16[0m [32m━━━━━━━━━━━━━━━━━━[0m[37m━━[0m [1m0s[0m 44ms/step - accuracy: 0.1097 - loss: 2.3544Model: "sequential_56"
┏━━━━━━━━━━━━━━━━━━━━━━━━━━━━━━━━━┳━━━━━━━━━━━━━━━━━━━━━━━━┳━━━━━━━━━━━━━━━┓
┃ Layer (type)                    ┃ Output Shape           ┃       Param # ┃
┡━━━━━━━━━━━━━━━━━━━━━━━━━━━━━━━━━╇━━━━━━━━━━━━━━━━━━━━━━━━╇━━━━━━━━━━━━━━━┩
│ dense_168 (Dense)               │ (None, 100)            │           200 │
├─────────────────────────────────┼────────────────────────┼───────────────┤
│ dense_169 (Dense)               │ (None, 100)            │        10,100 │
├─────────────────────────────────┼────────────────────────┼───────────────┤
│ flatten_56 (Flatten)            │ (None, 100)            │             0 │
├─────────────────────────────────┼────────────────────────┼───────────────┤
│ dense_170 (Dense)               │ (None, 1)              │           101 │
└─────────────────────────────────┴────────────────────────┴───────────────┘
 Total params: 10,401 (40.63 KB)
 Trainable params: 10,401 (40.63 KB)
 Non-trainable params: 0 (0.00 B)
Model: "sequential_57"
┏━━━━━━━━━━━━━━━━━━━━━━━━━━━━━━━━━┳━━━━━━━━━━━━━━━━━━━━━━━━┳━━━━━━━━━━━━━━━┓
┃ Layer (type)                    ┃ Output Shape           ┃       Param # ┃
┡━━━━━━━━━━━━━━━━━━━━━━━━━━━━━━━━━╇━━━━━━━━━━━━━━━━━━━━━━━━╇━━━━━━━━━━━━━━━┩
│ dense_171 (Dense)               │ (None, 12, 100)        │         1,800 │
├─────────────────────────────────┼────────────────────────┼───────────────┤
│ dense_172 (Dense)               │ (None, 12, 100)        │        10,100 │
├─────────────────────────────────┼────────────────────────┼───────────────┤
│ flatten_57 (Flatten)            │ (None, 1200)           │             0 │
├─────────────────────────────────┼────────────────────────┼───────────────┤
│ dense_173 (Dense)               │ (None, 1)              │         1,201 │
└─────────────────────────────────┴────────────────────────┴───────────────┘
 Total params: 13,101 (51.18 KB)
 Trainable params: 13,101 (51.18 KB)
 Non-trainable params: 0 (0.00 B)
Model: "sequential_58"
┏━━━━━━━━━━━━━━━━━━━━━━━━━━━━━━━━━┳━━━━━━━━━━━━━━━━━━━━━━━━┳━━━━━━━━━━━━━━━┓
┃ Layer (type)                    ┃ Output Shape           ┃       Param # ┃
┡━━━━━━━━━━━━━━━━━━━━━━━━━━━━━━━━━╇━━━━━━━━━━━━━━━━━━━━━━━━╇━━━━━━━━━━━━━━━┩
│ dense_174 (Dense)               │ (None, 10, 16, 100)    │         1,600 │
├─────────────────────────────────┼────────────────────────┼───────────────┤
│ dense_175 (Dense)               │ (None, 10, 16, 100)    │        10,100 │
├─────────────────────────────────┼────────────────────────┼───────────────┤
│ flatten_58 (Flatten)            │ (None, 16000)          │             0 │
├─────────────────────────────────┼────────────────────────┼───────────────┤
│ dense_176 (Dense)               │ (None, 1)              │        16,001 │
└─────────────────────────────────┴────────────────────────┴───────────────┘
 Total params: 27,701 (108.21 KB)
 Trainable params: 27,701 (108.21 KB)
 Non-trainable params: 0 (0.00 B)
Model: "sequential_59"
┏━━━━━━━━━━━━━━━━━━━━━━━━━━━━━━━━━┳━━━━━━━━━━━━━━━━━━━━━━━━┳━━━━━━━━━━━━━━━┓
┃ Layer (type)                    ┃ Output Shape           ┃       Param # ┃
┡━━━━━━━━━━━━━━━━━━━━━━━━━━━━━━━━━╇━━━━━━━━━━━━━━━━━━━━━━━━╇━━━━━━━━━━━━━━━┩
│ dense_177 (Dense)               │ (None, 15, 100)        │         2,000 │
├─────────────────────────────────┼────────────────────────┼───────────────┤
│ dense_178 (Dense)               │ (None, 15, 100)        │        10,100 │
├─────────────────────────────────┼────────────────────────┼───────────────┤
│ flatten_59 (Flatten)            │ (None, 1500)           │             0 │
├─────────────────────────────────┼────────────────────────┼───────────────┤
│ dense_179 (Dense)               │ (None, 1)              │         1,501 │
└─────────────────────────────────┴────────────────────────┴───────────────┘
 Total params: 13,601 (53.13 KB)
 Trainable params: 13,601 (53.13 KB)
 Non-trainable params: 0 (0.00 B)
Model: "sequential_60"
┏━━━━━━━━━━━━━━━━━━━━━━━━━━━━━━━━━┳━━━━━━━━━━━━━━━━━━━━━━━━┳━━━━━━━━━━━━━━━┓
┃ Layer (type)                    ┃ Output Shape           ┃       Param # ┃
┡━━━━━━━━━━━━━━━━━━━━━━━━━━━━━━━━━╇━━━━━━━━━━━━━━━━━━━━━━━━╇━━━━━━━━━━━━━━━┩
│ dense_180 (Dense)               │ (None, 3, 5, 100)      │         2,000 │
├─────────────────────────────────┼────────────────────────┼───────────────┤
│ dense_181 (Dense)               │ (None, 3, 5, 100)      │        10,100 │
├─────────────────────────────────┼────────────────────────┼───────────────┤
│ flatten_60 (Flatten)            │ (None, 1500)           │             0 │
├─────────────────────────────────┼────────────────────────┼───────────────┤
│ dense_182 (Dense)               │ (None, 1)              │         1,501 │
└─────────────────────────────────┴────────────────────────┴───────────────┘
 Total params: 13,601 (53.13 KB)
 Trainable params: 13,601 (53.13 KB)
 Non-trainable params: 0 (0.00 B)
Model: "sequential_61"
┏━━━━━━━━━━━━━━━━━━━━━━━━━━━━━━━━━┳━━━━━━━━━━━━━━━━━━━━━━━━┳━━━━━━━━━━━━━━━┓
┃ Layer (type)                    ┃ Output Shape           ┃       Param # ┃
┡━━━━━━━━━━━━━━━━━━━━━━━━━━━━━━━━━╇━━━━━━━━━━━━━━━━━━━━━━━━╇━━━━━━━━━━━━━━━┩
│ dense_183 (Dense)               │ (None, 9, 7, 100)      │         1,900 │
├─────────────────────────────────┼────────────────────────┼───────────────┤
│ dense_184 (Dense)               │ (None, 9, 7, 100)      │        10,100 │
├─────────────────────────────────┼────────────────────────┼───────────────┤
│ flatten_61 (Flatten)            │ (None, 6300)           │             0 │
├─────────────────────────────────┼────────────────────────┼───────────────┤
│ dense_185 (Dense)               │ (None, 1)              │         6,301 │
└─────────────────────────────────┴────────────────────────┴───────────────┘
 Total params: 18,301 (71.49 KB)
 Trainable params: 18,301 (71.49 KB)
 Non-trainable params: 0 (0.00 B)
Model: "sequential_62"
┏━━━━━━━━━━━━━━━━━━━━━━━━━━━━━━━━━┳━━━━━━━━━━━━━━━━━━━━━━━━┳━━━━━━━━━━━━━━━┓
┃ Layer (type)                    ┃ Output Shape           ┃       Param # ┃
┡━━━━━━━━━━━━━━━━━━━━━━━━━━━━━━━━━╇━━━━━━━━━━━━━━━━━━━━━━━━╇━━━━━━━━━━━━━━━┩
│ dense_186 (Dense)               │ (None, 100)            │         1,500 │
├─────────────────────────────────┼────────────────────────┼───────────────┤
│ dense_187 (Dense)               │ (None, 100)            │        10,100 │
├─────────────────────────────────┼────────────────────────┼───────────────┤
│ flatten_62 (Flatten)            │ (None, 100)            │             0 │
├─────────────────────────────────┼────────────────────────┼───────────────┤
│ dense_188 (Dense)               │ (None, 1)              │           101 │
└─────────────────────────────────┴────────────────────────┴───────────────┘
 Total params: 11,701 (45.71 KB)
 Trainable params: 11,701 (45.71 KB)
 Non-trainable params: 0 (0.00 B)
Model: "sequential_63"
┏━━━━━━━━━━━━━━━━━━━━━━━━━━━━━━━━━┳━━━━━━━━━━━━━━━━━━━━━━━━┳━━━━━━━━━━━━━━━┓
┃ Layer (type)                    ┃ Output Shape           ┃       Param # ┃
┡━━━━━━━━━━━━━━━━━━━━━━━━━━━━━━━━━╇━━━━━━━━━━━━━━━━━━━━━━━━╇━━━━━━━━━━━━━━━┩
│ dense_189 (Dense)               │ (None, 9, 100)         │           300 │
├─────────────────────────────────┼────────────────────────┼───────────────┤
│ dense_190 (Dense)               │ (None, 9, 100)         │        10,100 │
├─────────────────────────────────┼────────────────────────┼───────────────┤
│ flatten_63 (Flatten)            │ (None, 900)            │             0 │
├─────────────────────────────────┼────────────────────────┼───────────────┤
│ dense_191 (Dense)               │ (None, 1)              │           901 │
└─────────────────────────────────┴────────────────────────┴───────────────┘
 Total params: 11,301 (44.14 KB)
 Trainable params: 11,301 (44.14 KB)
 Non-trainable params: 0 (0.00 B)
[1m16/16[0m [32m━━━━━━━━━━━━━━━━━━━━[0m[37m[0m [1m3s[0m 97ms/step - accuracy: 0.1098 - loss: 2.3517 - val_accuracy: 0.0900 - val_loss: 2.3511
Epoch 2/5
Model: "sequential_64"
┏━━━━━━━━━━━━━━━━━━━━━━━━━━━━━━━━━┳━━━━━━━━━━━━━━━━━━━━━━━━┳━━━━━━━━━━━━━━━┓
┃ Layer (type)                    ┃ Output Shape           ┃       Param # ┃
┡━━━━━━━━━━━━━━━━━━━━━━━━━━━━━━━━━╇━━━━━━━━━━━━━━━━━━━━━━━━╇━━━━━━━━━━━━━━━┩
│ dense_192 (Dense)               │ (None, 7, 12, 100)     │           900 │
├─────────────────────────────────┼────────────────────────┼───────────────┤
│ dense_193 (Dense)               │ (None, 7, 12, 100)     │        10,100 │
├─────────────────────────────────┼────────────────────────┼───────────────┤
│ flatten_64 (Flatten)            │ (None, 8400)           │             0 │
├─────────────────────────────────┼────────────────────────┼───────────────┤
│ dense_194 (Dense)               │ (None, 1)              │         8,401 │
└─────────────────────────────────┴────────────────────────┴───────────────┘
 Total params: 19,401 (75.79 KB)
 Trainable params: 19,401 (75.79 KB)
 Non-trainable params: 0 (0.00 B)
[1m 1/16[0m [32m━[0m[37m━━━━━━━━━━━━━━━━━━━[0m [1m1s[0m 107ms/step - accuracy: 0.1094 - loss: 2.2746Model: "sequential_65"
┏━━━━━━━━━━━━━━━━━━━━━━━━━━━━━━━━━┳━━━━━━━━━━━━━━━━━━━━━━━━┳━━━━━━━━━━━━━━━┓
┃ Layer (type)                    ┃ Output Shape           ┃       Param # ┃
┡━━━━━━━━━━━━━━━━━━━━━━━━━━━━━━━━━╇━━━━━━━━━━━━━━━━━━━━━━━━╇━━━━━━━━━━━━━━━┩
│ dense_195 (Dense)               │ (None, 3, 14, 100)     │         1,800 │
├─────────────────────────────────┼────────────────────────┼───────────────┤
│ dense_196 (Dense)               │ (None, 3, 14, 100)     │        10,100 │
├─────────────────────────────────┼────────────────────────┼───────────────┤
│ flatten_65 (Flatten)            │ (None, 4200)           │             0 │
├─────────────────────────────────┼────────────────────────┼───────────────┤
│ dense_197 (Dense)               │ (None, 1)              │         4,201 │
└─────────────────────────────────┴────────────────────────┴───────────────┘
 Total params: 16,101 (62.89 KB)
 Trainable params: 16,101 (62.89 KB)
 Non-trainable params: 0 (0.00 B)
[1m 2/16[0m [32m━━[0m[37m━━━━━━━━━━━━━━━━━━[0m [1m1s[0m 91ms/step - accuracy: 0.1055 - loss: 2.3009 
…
[1m 1/16[0m [32m━[0m[37m━━━━━━━━━━━━━━━━━━━[0m [1m1s[0m 99ms/step - accuracy: 0.1094 - loss: 2.2552[1m 4/16[0m [32m━━━━━[0m[37m━━━━━━━━━━━━━━━[0m [1m0s[0m 22ms/step - accuracy: 0.1084 - loss: 2.2923Model: "sequential_67"
[1m 6/16[0m [32m━━━━━━━[0m[37m━━━━━━━━━━━━━[0m [1m0s[0m 27ms/step - accuracy: 0.1191 - loss: 2.2898┏━━━━━━━━━━━━━━━━━━━━━━━━━━━━━━━━━┳━━━━━━━━━━━━━━━━━━━━━━━━┳━━━━━━━━━━━━━━━┓
┃ Layer (type)                    ┃ Output Shape           ┃       Param # ┃
┡━━━━━━━━━━━━━━━━━━━━━━━━━━━━━━━━━╇━━━━━━━━━━━━━━━━━━━━━━━━╇━━━━━━━━━━━━━━━┩
│ dense_201 (Dense)               │ (None, 6, 100)         │         1,100 │
├─────────────────────────────────┼────────────────────────┼───────────────┤
│ dense_202 (Dense)               │ (None, 6, 100)         │        10,100 │
├─────────────────────────────────┼────────────────────────┼───────────────┤
│ flatten_67 (Flatten)            │ (None, 600)            │             0 │
├─────────────────────────────────┼────────────────────────┼───────────────┤
│ dense_203 (Dense)               │ (None, 1)              │           601 │
└─────────────────────────────────┴────────────────────────┴───────────────┘
 Total params: 11,801 (46.10 KB)
 Trainable params: 11,801 (46.10 KB)
 Non-trainable params: 0 (0.00 B)
[1m 8/16[0m [32m━━━━━━━━━━[0m[37m━━━━━━━━━━[0m [1m0s[0m 27ms/step - accuracy: 0.1236 - loss: 2.2882Model: "sequential_68"
┏━━━━━━━━━━━━━━━━━━━━━━━━━━━━━━━━━┳━━━━━━━━━━━━━━━━━━━━━━━━┳━━━━━━━━━━━━━━━┓
┃ Layer (type)                    ┃ Output Shape           ┃       Param # ┃
┡━━━━━━━━━━━━━━━━━━━━━━━━━━━━━━━━━╇━━━━━━━━━━━━━━━━━━━━━━━━╇━━━━━━━━━━━━━━━┩
│ dense_204 (Dense)               │ (None, 18, 100)        │         1,300 │
├─────────────────────────────────┼────────────────────────┼───────────────┤
│ dense_205 (Dense)               │ (None, 18, 100)        │        10,100 │
├─────────────────────────────────┼────────────────────────┼───────────────┤
│ flatten_68 (Flatten)            │ (None, 1800)           │             0 │
├─────────────────────────────────┼────────────────────────┼───────────────┤
│ dense_206 (Dense)               │ (None, 1)              │         1,801 │
└─────────────────────────────────┴────────────────────────┴───────────────┘
 Total params: 13,201 (51.57 KB)
 Trainable params: 13,201 (51.57 KB)
 Non-trainable params: 0 (0.00 B)
[1m 9/16[0m [32m━━━━━━━━━━━[0m[37m━━━━━━━━━[0m [1m0s[0m 31ms/step - accuracy: 0.1259 - loss: 2.2873[1m11/16[0m [32m━━━━━━━━━━━━━[0m[37m━━━━━━━[0m [1m0s[0m 30ms/step - accuracy: 0.1301 - loss: 2.2859Model: "sequential_69"
┏━━━━━━━━━━━━━━━━━━━━━━━━━━━━━━━━━┳━━━━━━━━━━━━━━━━━━━━━━━━┳━━━━━━━━━━━━━━━┓
┃ Layer (type)                    ┃ Output Shape           ┃       Param # ┃
┡━━━━━━━━━━━━━━━━━━━━━━━━━━━━━━━━━╇━━━━━━━━━━━━━━━━━━━━━━━━╇━━━━━━━━━━━━━━━┩
│ dense_207 (Dense)               │ (None, 10, 100)        │           500 │
├─────────────────────────────────┼────────────────────────┼───────────────┤
│ dense_208 (Dense)               │ (None, 10, 100)        │        10,100 │
├─────────────────────────────────┼────────────────────────┼───────────────┤
│ flatten_69 (Flatten)            │ (None, 1000)           │             0 │
├─────────────────────────────────┼────────────────────────┼───────────────┤
│ dense_209 (Dense)               │ (None, 1)              │         1,001 │
└─────────────────────────────────┴────────────────────────┴───────────────┘
 Total params: 11,601 (45.32 KB)
 Trainable params: 11,601 (45.32 KB)
 Non-trainable params: 0 (0.00 B)
[1m13/16[0m [32m━━━━━━━━━━━━━━━━[0m[37m━━━━[0m [1m0s[0m 29ms/step - accuracy: 0.1323 - loss: 2.2848Model: "sequential_70"
┏━━━━━━━━━━━━━━━━━━━━━━━━━━━━━━━━━┳━━━━━━━━━━━━━━━━━━━━━━━━┳━━━━━━━━━━━━━━━┓
┃ Layer (type)                    ┃ Output Shape           ┃       Param # ┃
┡━━━━━━━━━━━━━━━━━━━━━━━━━━━━━━━━━╇━━━━━━━━━━━━━━━━━━━━━━━━╇━━━━━━━━━━━━━━━┩
│ dense_210 (Dense)               │ (None, 16, 100)        │         1,600 │
├─────────────────────────────────┼────────────────────────┼───────────────┤
│ dense_211 (Dense)               │ (None, 16, 100)        │        10,100 │
├─────────────────────────────────┼────────────────────────┼───────────────┤
│ flatten_70 (Flatten)            │ (None, 1600)           │             0 │
├─────────────────────────────────┼────────────────────────┼───────────────┤
│ dense_212 (Dense)               │ (None, 1)              │         1,601 │
└─────────────────────────────────┴────────────────────────┴───────────────┘
 Total params: 13,301 (51.96 KB)
 Trainable params: 13,301 (51.96 KB)
 Non-trainable params: 0 (0.00 B)
[1m15/16[0m [32m━━━━━━━━━━━━━━━━━━[0m[37m━━[0m [1m0s[0m 29ms/step - accuracy: 0.1337 - loss: 2.2843Model: "sequential_71"
┏━━━━━━━━━━━━━━━━━━━━━━━━━━━━━━━━━┳━━━━━━━━━━━━━━━━━━━━━━━━┳━━━━━━━━━━━━━━━┓
┃ Layer (type)                    ┃ Output Shape           ┃       Param # ┃
┡━━━━━━━━━━━━━━━━━━━━━━━━━━━━━━━━━╇━━━━━━━━━━━━━━━━━━━━━━━━╇━━━━━━━━━━━━━━━┩
│ dense_213 (Dense)               │ (None, 8, 100)         │         1,700 │
├─────────────────────────────────┼────────────────────────┼───────────────┤
│ dense_214 (Dense)               │ (None, 8, 100)         │        10,100 │
├─────────────────────────────────┼────────────────────────┼───────────────┤
│ flatten_71 (Flatten)            │ (None, 800)            │             0 │
├─────────────────────────────────┼────────────────────────┼───────────────┤
│ dense_215 (Dense)               │ (None, 1)              │           801 │
└─────────────────────────────────┴────────────────────────┴───────────────┘
 Total params: 12,601 (49.22 KB)
 Trainable params: 12,601 (49.22 KB)
 Non-trainable params: 0 (0.00 B)
Model: "sequential_72"
┏━━━━━━━━━━━━━━━━━━━━━━━━━━━━━━━━━┳━━━━━━━━━━━━━━━━━━━━━━━━┳━━━━━━━━━━━━━━━┓
┃ Layer (type)                    ┃ Output Shape           ┃       Param # ┃
┡━━━━━━━━━━━━━━━━━━━━━━━━━━━━━━━━━╇━━━━━━━━━━━━━━━━━━━━━━━━╇━━━━━━━━━━━━━━━┩
│ dense_216 (Dense)               │ (None, 100)            │         1,900 │
├─────────────────────────────────┼────────────────────────┼───────────────┤
│ dense_217 (Dense)               │ (None, 100)            │        10,100 │
├─────────────────────────────────┼────────────────────────┼───────────────┤
│ flatten_72 (Flatten)            │ (None, 100)            │             0 │
├─────────────────────────────────┼────────────────────────┼───────────────┤
│ dense_218 (Dense)               │ (None, 1)              │           101 │
└─────────────────────────────────┴────────────────────────┴───────────────┘
 Total params: 12,101 (47.27 KB)
 Trainable params: 12,101 (47.27 KB)
 Non-trainable params: 0 (0.00 B)
Model: "sequential_73"
┏━━━━━━━━━━━━━━━━━━━━━━━━━━━━━━━━━┳━━━━━━━━━━━━━━━━━━━━━━━━┳━━━━━━━━━━━━━━━┓
┃ Layer (type)                    ┃ Output Shape           ┃       Param # ┃
┡━━━━━━━━━━━━━━━━━━━━━━━━━━━━━━━━━╇━━━━━━━━━━━━━━━━━━━━━━━━╇━━━━━━━━━━━━━━━┩
│ dense_219 (Dense)               │ (None, 13, 9, 100)     │         1,600 │
├─────────────────────────────────┼────────────────────────┼───────────────┤
│ dense_220 (Dense)               │ (None, 13, 9, 100)     │        10,100 │
├─────────────────────────────────┼────────────────────────┼───────────────┤
│ flatten_73 (Flatten)            │ (None, 11700)          │             0 │
├─────────────────────────────────┼────────────────────────┼───────────────┤
│ dense_221 (Dense)               │ (None, 1)              │        11,701 │
└─────────────────────────────────┴────────────────────────┴───────────────┘
 Total params: 23,401 (91.41 KB)
 Trainable params: 23,401 (91.41 KB)
 Non-trainable params: 0 (0.00 B)
[1m16/16[0m [32m━━━━━━━━━━━━━━━━━━━━[0m[37m[0m [1m1s[0m 56ms/step - accuracy: 0.1348 - loss: 2.2839 - val_accuracy: 0.0700 - val_loss: 2.3517
Epoch 4/5
Model: "sequential_74"
┏━━━━━━━━━━━━━━━━━━━━━━━━━━━━━━━━━┳━━━━━━━━━━━━━━━━━━━━━━━━┳━━━━━━━━━━━━━━━┓
┃ Layer (type)                    ┃ Output Shape           ┃       Param # ┃
┡━━━━━━━━━━━━━━━━━━━━━━━━━━━━━━━━━╇━━━━━━━━━━━━━━━━━━━━━━━━╇━━━━━━━━━━━━━━━┩
│ dense_222 (Dense)               │ (None, 100)            │           200 │
├─────────────────────────────────┼────────────────────────┼───────────────┤
│ dense_223 (Dense)               │ (None, 100)            │        10,100 │
├─────────────────────────────────┼────────────────────────┼───────────────┤
│ flatten_74 (Flatten)            │ (None, 100)            │             0 │
├─────────────────────────────────┼────────────────────────┼───────────────┤
│ dense_224 (Dense)               │ (None, 1)              │           101 │
└─────────────────────────────────┴────────────────────────┴───────────────┘
 Total params: 10,401 (40.63 KB)
 Trainable params: 10,401 (40.63 KB)
 Non-trainable params: 0 (0.00 B)
Model: "sequential_75"
┏━━━━━━━━━━━━━━━━━━━━━━━━━━━━━━━━━┳━━━━━━━━━━━━━━━━━━━━━━━━┳━━━━━━━━━━━━━━━┓
┃ Layer (type)                    ┃ Output Shape           ┃       Param # ┃
┡━━━━━━━━━━━━━━━━━━━━━━━━━━━━━━━━━╇━━━━━━━━━━━━━━━━━━━━━━━━╇━━━━━━━━━━━━━━━┩
│ dense_225 (Dense)               │ (None, 100)            │           800 │
├─────────────────────────────────┼────────────────────────┼───────────────┤
│ dense_226 (Dense)               │ (None, 100)            │        10,100 │
├─────────────────────────────────┼────────────────────────┼───────────────┤
│ flatten_75 (Flatten)            │ (None, 100)            │             0 │
├─────────────────────────────────┼────────────────────────┼───────────────┤
│ dense_227 (Dense)               │ (None, 1)              │           101 │
└─────────────────────────────────┴────────────────────────┴───────────────┘
 Total params: 11,001 (42.97 KB)
 Trainable params: 11,001 (42.97 KB)
 Non-trainable params: 0 (0.00 B)
[1m 1/16[0m [32m━[0m[37m━━━━━━━━━━━━━━━━━━━[0m [1m2s[0m 134ms/step - accuracy: 0.1250 - loss: 2.2388Model: "sequential_76"
┏━━━━━━━━━━━━━━━━━━━━━━━━━━━━━━━━━┳━━━━━━━━━━━━━━━━━━━━━━━━┳━━━━━━━━━━━━━━━┓
┃ Layer (type)                    ┃ Output Shape           ┃       Param # ┃
┡━━━━━━━━━━━━━━━━━━━━━━━━━━━━━━━━━╇━━━━━━━━━━━━━━━━━━━━━━━━╇━━━━━━━━━━━━━━━┩
│ dense_228 (Dense)               │ (None, 100)            │           200 │
├─────────────────────────────────┼────────────────────────┼───────────────┤
│ dense_229 (Dense)               │ (None, 100)            │        10,100 │
├─────────────────────────────────┼────────────────────────┼───────────────┤
│ flatten_76 (Flatten)            │ (None, 100)            │             0 │
├─────────────────────────────────┼────────────────────────┼───────────────┤
│ dense_230 (Dense)               │ (None, 1)              │           101 │
└─────────────────────────────────┴────────────────────────┴───────────────┘
 Total params: 10,401 (40.63 KB)
 Trainable params: 10,401 (40.63 KB)
 Non-trainable params: 0 (0.00 B)
[1m 3/16[0m [32m━━━[0m[37m━━━━━━━━━━━━━━━━━[0m [1m0s[0m 44ms/step - accuracy: 0.1155 - loss: 2.2744 [1m 5/16[0m [32m━━━━━━[0m[37m━━━━━━━━━━━━━━[0m [1m0s[0m 42ms/step - accuracy: 0.1244 - loss: 2.2759[1m 7/16[0m [32m━━━━━━━━[0m[37m━━━━━━━━━━━━[0m [1m0s[0m 36ms/step - accuracy: 0.1319 - loss: 2.2734Model: "sequential_77"
┏━━━━━━━━━━━━━━━━━━━━━━━━━━━━━━━━━┳━━━━━━━━━━━━━━━━━━━━━━━━┳━━━━━━━━━━━━━━━┓
┃ Layer (type)                    ┃ Output Shape           ┃       Param # ┃
┡━━━━━━━━━━━━━━━━━━━━━━━━━━━━━━━━━╇━━━━━━━━━━━━━━━━━━━━━━━━╇━━━━━━━━━━━━━━━┩
│ dense_231 (Dense)               │ (None, 11, 19, 100)    │         1,800 │
├─────────────────────────────────┼────────────────────────┼───────────────┤
│ dense_232 (Dense)               │ (None, 11, 19, 100)    │        10,100 │
├─────────────────────────────────┼────────────────────────┼───────────────┤
│ flatten_77 (Flatten)            │ (None, 20900)          │             0 │
├─────────────────────────────────┼────────────────────────┼───────────────┤
│ dense_233 (Dense)               │ (None, 1)              │        20,901 │
└─────────────────────────────────┴────────────────────────┴───────────────┘
 Total params: 32,801 (128.13 KB)
 Trainable params: 32,801 (128.13 KB)
 Non-trainable params: 0 (0.00 B)
[1m 9/16[0m [32m━━━━━━━━━━━[0m[37m━━━━━━━━━[0m [1m0s[0m 36ms/step - accuracy: 0.1365 - loss: 2.2719Model: "sequential_78"
┏━━━━━━━━━━━━━━━━━━━━━━━━━━━━━━━━━┳━━━━━━━━━━━━━━━━━━━━━━━━┳━━━━━━━━━━━━━━━┓
┃ Layer (type)                    ┃ Output Shape           ┃       Param # ┃
┡━━━━━━━━━━━━━━━━━━━━━━━━━━━━━━━━━╇━━━━━━━━━━━━━━━━━━━━━━━━╇━━━━━━━━━━━━━━━┩
│ dense_234 (Dense)               │ (None, 3, 1, 100)      │           600 │
├─────────────────────────────────┼────────────────────────┼───────────────┤
│ dense_235 (Dense)               │ (None, 3, 1, 100)      │        10,100 │
├─────────────────────────────────┼────────────────────────┼───────────────┤
│ flatten_78 (Flatten)            │ (None, 300)            │             0 │
├─────────────────────────────────┼────────────────────────┼───────────────┤
│ dense_236 (Dense)               │ (None, 1)              │           301 │
└─────────────────────────────────┴────────────────────────┴───────────────┘
 Total params: 11,001 (42.97 KB)
 Trainable params: 11,001 (42.97 KB)
 Non-trainable params: 0 (0.00 B)
[1m11/16[0m [32m━━━━━━━━━━━━━[0m[37m━━━━━━━[0m [1m0s[0m 35ms/step - accuracy: 0.1402 - loss: 2.2706Model: "sequential_79"
[1m13/16[0m [32m━━━━━━━━━━━━━━━━[0m[37m━━━━[0m [1m0s[0m 33ms/step - accuracy: 0.1421 - loss: 2.2695┏━━━━━━━━━━━━━━━━━━━━━━━━━━━━━━━━━┳━━━━━━━━━━━━━━━━━━━━━━━━┳━━━━━━━━━━━━━━━┓
┃ Layer (type)                    ┃ Output Shape           ┃       Param # ┃
┡━━━━━━━━━━━━━━━━━━━━━━━━━━━━━━━━━╇━━━━━━━━━━━━━━━━━━━━━━━━╇━━━━━━━━━━━━━━━┩
│ dense_237 (Dense)               │ (None, 7, 100)         │         1,000 │
├─────────────────────────────────┼────────────────────────┼───────────────┤
│ dense_238 (Dense)               │ (None, 7, 100)         │        10,100 │
├─────────────────────────────────┼────────────────────────┼───────────────┤
│ flatten_79 (Flatten)            │ (None, 700)            │             0 │
├─────────────────────────────────┼────────────────────────┼───────────────┤
│ dense_239 (Dense)               │ (None, 1)              │           701 │
└─────────────────────────────────┴────────────────────────┴───────────────┘
 Total params: 11,801 (46.10 KB)
 Trainable params: 11,801 (46.10 KB)
 Non-trainable params: 0 (0.00 B)
[1m15/16[0m [32m━━━━━━━━━━━━━━━━━━[0m[37m━━[0m [1m0s[0m 32ms/step - accuracy: 0.1431 - loss: 2.2691Model: "sequential_80"
┏━━━━━━━━━━━━━━━━━━━━━━━━━━━━━━━━━┳━━━━━━━━━━━━━━━━━━━━━━━━┳━━━━━━━━━━━━━━━┓
┃ Layer (type)                    ┃ Output Shape           ┃       Param # ┃
┡━━━━━━━━━━━━━━━━━━━━━━━━━━━━━━━━━╇━━━━━━━━━━━━━━━━━━━━━━━━╇━━━━━━━━━━━━━━━┩
│ dense_240 (Dense)               │ (None, 9, 8, 100)      │         1,300 │
├─────────────────────────────────┼────────────────────────┼───────────────┤
│ dense_241 (Dense)               │ (None, 9, 8, 100)      │        10,100 │
├─────────────────────────────────┼────────────────────────┼───────────────┤
│ flatten_80 (Flatten)            │ (None, 7200)           │             0 │
├─────────────────────────────────┼────────────────────────┼───────────────┤
│ dense_242 (Dense)               │ (None, 1)              │         7,201 │
└─────────────────────────────────┴────────────────────────┴───────────────┘
 Total params: 18,601 (72.66 KB)
 Trainable params: 18,601 (72.66 KB)
 Non-trainable params: 0 (0.00 B)
Model: "sequential_81"
┏━━━━━━━━━━━━━━━━━━━━━━━━━━━━━━━━━┳━━━━━━━━━━━━━━━━━━━━━━━━┳━━━━━━━━━━━━━━━┓
┃ Layer (type)                    ┃ Output Shape           ┃       Param # ┃
┡━━━━━━━━━━━━━━━━━━━━━━━━━━━━━━━━━╇━━━━━━━━━━━━━━━━━━━━━━━━╇━━━━━━━━━━━━━━━┩
│ dense_243 (Dense)               │ (None, 1, 100)         │         1,700 │
├─────────────────────────────────┼────────────────────────┼───────────────┤
│ dense_244 (Dense)               │ (None, 1, 100)         │        10,100 │
├─────────────────────────────────┼────────────────────────┼───────────────┤
│ flatten_81 (Flatten)            │ (None, 100)            │             0 │
├─────────────────────────────────┼────────────────────────┼───────────────┤
│ dense_245 (Dense)               │ (None, 1)              │           101 │
└─────────────────────────────────┴────────────────────────┴───────────────┘
 Total params: 11,901 (46.49 KB)
 Trainable params: 11,901 (46.49 KB)
 Non-trainable params: 0 (0.00 B)
Model: "sequential_82"
┏━━━━━━━━━━━━━━━━━━━━━━━━━━━━━━━━━┳━━━━━━━━━━━━━━━━━━━━━━━━┳━━━━━━━━━━━━━━━┓
┃ Layer (type)                    ┃ Output Shape           ┃       Param # ┃
┡━━━━━━━━━━━━━━━━━━━━━━━━━━━━━━━━━╇━━━━━━━━━━━━━━━━━━━━━━━━╇━━━━━━━━━━━━━━━┩
│ dense_246 (Dense)               │ (None, 5, 3, 100)      │         1,300 │
├─────────────────────────────────┼────────────────────────┼───────────────┤
│ dense_247 (Dense)               │ (None, 5, 3, 100)      │        10,100 │
├─────────────────────────────────┼────────────────────────┼───────────────┤
│ flatten_82 (Flatten)            │ (None, 1500)           │             0 │
├─────────────────────────────────┼────────────────────────┼───────────────┤
│ dense_248 (Dense)               │ (None, 1)              │         1,501 │
└─────────────────────────────────┴────────────────────────┴───────────────┘
 Total params: 12,901 (50.39 KB)
 Trainable params: 12,901 (50.39 KB)
 Non-trainable params: 0 (0.00 B)
[1m16/16[0m [32m━━━━━━━━━━━━━━━━━━━━[0m[37m[0m [1m1s[0m 46ms/step - accuracy: 0.1439 - loss: 2.2687 - val_accuracy: 0.0800 - val_loss: 2.3531
Epoch 5/5
Model: "sequential_83"
┏━━━━━━━━━━━━━━━━━━━━━━━━━━━━━━━━━┳━━━━━━━━━━━━━━━━━━━━━━━━┳━━━━━━━━━━━━━━━┓
┃ Layer (type)                    ┃ Output Shape           ┃       Param # ┃
┡━━━━━━━━━━━━━━━━━━━━━━━━━━━━━━━━━╇━━━━━━━━━━━━━━━━━━━━━━━━╇━━━━━━━━━━━━━━━┩
│ dense_249 (Dense)               │ (None, 3, 100)         │           200 │
├─────────────────────────────────┼────────────────────────┼───────────────┤
│ dense_250 (Dense)               │ (None, 3, 100)         │        10,100 │
├─────────────────────────────────┼────────────────────────┼───────────────┤
│ flatten_83 (Flatten)            │ (None, 300)            │             0 │
├─────────────────────────────────┼────────────────────────┼───────────────┤
│ dense_251 (Dense)               │ (None, 1)              │           301 │
└─────────────────────────────────┴────────────────────────┴───────────────┘
 Total params: 10,601 (41.41 KB)
 Trainable params: 10,601 (41.41 KB)
 Non-trainable params: 0 (0.00 B)
Model: "sequential_84"
┏━━━━━━━━━━━━━━━━━━━━━━━━━━━━━━━━━┳━━━━━━━━━━━━━━━━━━━━━━━━┳━━━━━━━━━━━━━━━┓
┃ Layer (type)                    ┃ Output Shape           ┃       Param # ┃
┡━━━━━━━━━━━━━━━━━━━━━━━━━━━━━━━━━╇━━━━━━━━━━━━━━━━━━━━━━━━╇━━━━━━━━━━━━━━━┩
│ dense_252 (Dense)               │ (None, 5, 15, 100)     │         1,500 │
├─────────────────────────────────┼────────────────────────┼───────────────┤
│ dense_253 (Dense)               │ (None, 5, 15, 100)     │        10,100 │
├─────────────────────────────────┼────────────────────────┼───────────────┤
│ flatten_84 (Flatten)            │ (None, 7500)           │             0 │
├─────────────────────────────────┼────────────────────────┼───────────────┤
│ dense_254 (Dense)               │ (None, 1)              │         7,501 │
└─────────────────────────────────┴────────────────────────┴───────────────┘
 Total params: 19,101 (74.61 KB)
 Trainable params: 19,101 (74.61 KB)
 Non-trainable params: 0 (0.00 B)
[1m 1/16[0m [32m━[0m[37m━━━━━━━━━━━━━━━━━━━[0m [1m2s[0m 163ms/step - accuracy: 0.1406 - loss: 2.2238Model: "sequential_85"
┏━━━━━━━━━━━━━━━━━━━━━━━━━━━━━━━━━┳━━━━━━━━━━━━━━━━━━━━━━━━┳━━━━━━━━━━━━━━━┓
┃ Layer (type)                    ┃ Output Shape           ┃       Param # ┃
┡━━━━━━━━━━━━━━━━━━━━━━━━━━━━━━━━━╇━━━━━━━━━━━━━━━━━━━━━━━━╇━━━━━━━━━━━━━━━┩
│ dense_255 (Dense)               │ (None, 1, 5, 100)      │         1,500 │
├─────────────────────────────────┼────────────────────────┼───────────────┤
│ dense_256 (Dense)               │ (None, 1, 5, 100)      │        10,100 │
├─────────────────────────────────┼────────────────────────┼───────────────┤
│ flatten_85 (Flatten)            │ (None, 500)            │             0 │
├─────────────────────────────────┼────────────────────────┼───────────────┤
│ dense_257 (Dense)               │ (None, 1)              │           501 │
└─────────────────────────────────┴────────────────────────┴───────────────┘
 Total params: 12,101 (47.27 KB)
 Trainable params: 12,101 (47.27 KB)
 Non-trainable params: 0 (0.00 B)
[1m 2/16[0m [32m━━[0m[37m━━━━━━━━━━━━━━━━━━[0m [1m0s[0m 69ms/step - accuracy: 0.1289 - loss: 2.2530 [1m 3/16[0m [32m━━━[0m[37m━━━━━━━━━━━━━━━━━[0m [1m0s[0m 67ms/step - accuracy: 0.1311 - loss: 2.2602Model: "sequential_86"
┏━━━━━━━━━━━━━━━━━━━━━━━━━━━━━━━━━┳━━━━━━━━━━━━━━━━━━━━━━━━┳━━━━━━━━━━━━━━━┓
┃ Layer (type)                    ┃ Output Shape           ┃       Param # ┃
┡━━━━━━━━━━━━━━━━━━━━━━━━━━━━━━━━━╇━━━━━━━━━━━━━━━━━━━━━━━━╇━━━━━━━━━━━━━━━┩
│ dense_258 (Dense)               │ (None, 9, 15, 100)     │         1,600 │
├─────────────────────────────────┼────────────────────────┼───────────────┤
│ dense_259 (Dense)               │ (None, 9, 15, 100)     │        10,100 │
├─────────────────────────────────┼────────────────────────┼───────────────┤
│ flatten_86 (Flatten)            │ (None, 13500)          │             0 │
├─────────────────────────────────┼────────────────────────┼───────────────┤
│ dense_260 (Dense)               │ (None, 1)              │        13,501 │
└─────────────────────────────────┴────────────────────────┴───────────────┘
 Total params: 25,201 (98.44 KB)
 Trainable params: 25,201 (98.44 KB)
 Non-trainable params: 0 (0.00 B)
[1m 4/16[0m [32m━━━━━[0m[37m━━━━━━━━━━━━━━━[0m [1m0s[0m 64ms/step - accuracy: 0.1354 - loss: 2.2622Model: "sequential_87"
┏━━━━━━━━━━━━━━━━━━━━━━━━━━━━━━━━━┳━━━━━━━━━━━━━━━━━━━━━━━━┳━━━━━━━━━━━━━━━┓
┃ Layer (type)                    ┃ Output Shape           ┃       Param # ┃
┡━━━━━━━━━━━━━━━━━━━━━━━━━━━━━━━━━╇━━━━━━━━━━━━━━━━━━━━━━━━╇━━━━━━━━━━━━━━━┩
│ dense_261 (Dense)               │ (None, 10, 100)        │         1,400 │
├─────────────────────────────────┼────────────────────────┼───────────────┤
│ dense_262 (Dense)               │ (None, 10, 100)        │        10,100 │
├─────────────────────────────────┼────────────────────────┼───────────────┤
│ flatten_87 (Flatten)            │ (None, 1000)           │             0 │
├─────────────────────────────────┼────────────────────────┼───────────────┤
│ dense_263 (Dense)               │ (None, 1)              │         1,001 │
└─────────────────────────────────┴────────────────────────┴───────────────┘
 Total params: 12,501 (48.83 KB)
 Trainable params: 12,501 (48.83 KB)
 Non-trainable params: 0 (0.00 B)
[1m 6/16[0m [32m━━━━━━━[0m[37m━━━━━━━━━━━━━[0m [1m0s[0m 56ms/step - accuracy: 0.1469 - loss: 2.2601Model: "sequential_88"
┏━━━━━━━━━━━━━━━━━━━━━━━━━━━━━━━━━┳━━━━━━━━━━━━━━━━━━━━━━━━┳━━━━━━━━━━━━━━━┓
┃ Layer (type)                    ┃ Output Shape           ┃       Param # ┃
┡━━━━━━━━━━━━━━━━━━━━━━━━━━━━━━━━━╇━━━━━━━━━━━━━━━━━━━━━━━━╇━━━━━━━━━━━━━━━┩
│ dense_264 (Dense)               │ (None, 7, 17, 100)     │           500 │
├─────────────────────────────────┼────────────────────────┼───────────────┤
│ dense_265 (Dense)               │ (None, 7, 17, 100)     │        10,100 │
├─────────────────────────────────┼────────────────────────┼───────────────┤
│ flatten_88 (Flatten)            │ (None, 11900)          │             0 │
├─────────────────────────────────┼────────────────────────┼───────────────┤
│ dense_266 (Dense)               │ (None, 1)              │        11,901 │
└─────────────────────────────────┴────────────────────────┴───────────────┘
 Total params: 22,501 (87.89 KB)
 Trainable params: 22,501 (87.89 KB)
 Non-trainable params: 0 (0.00 B)
Model: "sequential_89"
[1m 8/16[0m [32m━━━━━━━━━━[0m[37m━━━━━━━━━━[0m [1m0s[0m 54ms/step - accuracy: 0.1520 - loss: 2.2588┏━━━━━━━━━━━━━━━━━━━━━━━━━━━━━━━━━┳━━━━━━━━━━━━━━━━━━━━━━━━┳━━━━━━━━━━━━━━━┓
┃ Layer (type)                    ┃ Output Shape           ┃       Param # ┃
┡━━━━━━━━━━━━━━━━━━━━━━━━━━━━━━━━━╇━━━━━━━━━━━━━━━━━━━━━━━━╇━━━━━━━━━━━━━━━┩
│ dense_267 (Dense)               │ (None, 5, 100)         │           800 │
├─────────────────────────────────┼────────────────────────┼───────────────┤
│ dense_268 (Dense)               │ (None, 5, 100)         │        10,100 │
├─────────────────────────────────┼────────────────────────┼───────────────┤
│ flatten_89 (Flatten)            │ (None, 500)            │             0 │
├─────────────────────────────────┼────────────────────────┼───────────────┤
│ dense_269 (Dense)               │ (None, 1)              │           501 │
└─────────────────────────────────┴────────────────────────┴───────────────┘
 Total params: 11,401 (44.54 KB)
 Trainable params: 11,401 (44.54 KB)
 Non-trainable params: 0 (0.00 B)
[1m10/16[0m [32m━━━━━━━━━━━━[0m[37m━━━━━━━━[0m [1m0s[0m 48ms/step - accuracy: 0.1565 - loss: 2.2573Model: "sequential_90"
┏━━━━━━━━━━━━━━━━━━━━━━━━━━━━━━━━━┳━━━━━━━━━━━━━━━━━━━━━━━━┳━━━━━━━━━━━━━━━┓
┃ Layer (type)                    ┃ Output Shape           ┃       Param # ┃
┡━━━━━━━━━━━━━━━━━━━━━━━━━━━━━━━━━╇━━━━━━━━━━━━━━━━━━━━━━━━╇━━━━━━━━━━━━━━━┩
│ dense_270 (Dense)               │ (None, 100)            │         1,600 │
├─────────────────────────────────┼────────────────────────┼───────────────┤
│ dense_271 (Dense)               │ (None, 100)            │        10,100 │
├─────────────────────────────────┼────────────────────────┼───────────────┤
│ flatten_90 (Flatten)            │ (None, 100)            │             0 │
├─────────────────────────────────┼────────────────────────┼───────────────┤
│ dense_272 (Dense)               │ (None, 1)              │           101 │
└─────────────────────────────────┴────────────────────────┴───────────────┘
 Total params: 11,801 (46.10 KB)
 Trainable params: 11,801 (46.10 KB)
 Non-trainable params: 0 (0.00 B)
[1m12/16[0m [32m━━━━━━━━━━━━━━━[0m[37m━━━━━[0m [1m0s[0m 44ms/step - accuracy: 0.1586 - loss: 2.2561Model: "sequential_91"
┏━━━━━━━━━━━━━━━━━━━━━━━━━━━━━━━━━┳━━━━━━━━━━━━━━━━━━━━━━━━┳━━━━━━━━━━━━━━━┓
┃ Layer (type)                    ┃ Output Shape           ┃       Param # ┃
┡━━━━━━━━━━━━━━━━━━━━━━━━━━━━━━━━━╇━━━━━━━━━━━━━━━━━━━━━━━━╇━━━━━━━━━━━━━━━┩
│ dense_273 (Dense)               │ (None, 4, 13, 100)     │           800 │
├─────────────────────────────────┼────────────────────────┼───────────────┤
│ dense_274 (Dense)               │ (None, 4, 13, 100)     │        10,100 │
├─────────────────────────────────┼────────────────────────┼───────────────┤
│ flatten_91 (Flatten)            │ (None, 5200)           │             0 │
├─────────────────────────────────┼────────────────────────┼───────────────┤
│ dense_275 (Dense)               │ (None, 1)              │         5,201 │
└─────────────────────────────────┴────────────────────────┴───────────────┘
 Total params: 16,101 (62.89 KB)
 Trainable params: 16,101 (62.89 KB)
 Non-trainable params: 0 (0.00 B)
[1m13/16[0m [32m━━━━━━━━━━━━━━━━[0m[37m━━━━[0m [1m0s[0m 45ms/step - accuracy: 0.1594 - loss: 2.2556Model: "sequential_92"
┏━━━━━━━━━━━━━━━━━━━━━━━━━━━━━━━━━┳━━━━━━━━━━━━━━━━━━━━━━━━┳━━━━━━━━━━━━━━━┓
┃ Layer (type)                    ┃ Output Shape           ┃       Param # ┃
┡━━━━━━━━━━━━━━━━━━━━━━━━━━━━━━━━━╇━━━━━━━━━━━━━━━━━━━━━━━━╇━━━━━━━━━━━━━━━┩
│ dense_276 (Dense)               │ (None, 19, 2, 100)     │         1,100 │
├─────────────────────────────────┼────────────────────────┼───────────────┤
│ dense_277 (Dense)               │ (None, 19, 2, 100)     │        10,100 │
├─────────────────────────────────┼────────────────────────┼───────────────┤
│ flatten_92 (Flatten)            │ (None, 3800)           │             0 │
├─────────────────────────────────┼────────────────────────┼───────────────┤
│ dense_278 (Dense)               │ (None, 1)              │         3,801 │
└─────────────────────────────────┴────────────────────────┴───────────────┘
 Total params: 15,001 (58.60 KB)
 Trainable params: 15,001 (58.60 KB)
 Non-trainable params: 0 (0.00 B)
[1m16/16[0m [32m━━━━━━━━━━━━━━━━━━━━[0m[37m[0m [1m0s[0m 40ms/step - accuracy: 0.1603 - loss: 2.2551[1m16/16[0m [32m━━━━━━━━━━━━━━━━━━━━[0m[37m[0m [1m1s[0m 45ms/step - accuracy: 0.1606 - loss: 2.2549 - val_accuracy: 0.0900 - val_loss: 2.3546
Model: "sequential_93"
┏━━━━━━━━━━━━━━━━━━━━━━━━━━━━━━━━━┳━━━━━━━━━━━━━━━━━━━━━━━━┳━━━━━━━━━━━━━━━┓
┃ Layer (type)                    ┃ Output Shape           ┃       Param # ┃
┡━━━━━━━━━━━━━━━━━━━━━━━━━━━━━━━━━╇━━━━━━━━━━━━━━━━━━━━━━━━╇━━━━━━━━━━━━━━━┩
│ dense_279 (Dense)               │ (None, 100)            │           700 │
├─────────────────────────────────┼────────────────────────┼───────────────┤
│ dense_280 (Dense)               │ (None, 100)            │        10,100 │
├─────────────────────────────────┼────────────────────────┼───────────────┤
│ flatten_93 (Flatten)            │ (None, 100)            │             0 │
├─────────────────────────────────┼────────────────────────┼───────────────┤
│ dense_281 (Dense)               │ (None, 1)              │           101 │
└─────────────────────────────────┴────────────────────────┴───────────────┘
 Total params: 10,901 (42.58 KB)
 Trainable params: 10,901 (42.58 KB)
 Non-trainable params: 0 (0.00 B)
[1m1/4[0m [32m━━━━━[0m[37m━━━━━━━━━━━━━━━[0m [1m0s[0m 125ms/step - accuracy: 0.0312 - loss: 2.3933[1m4/4[0m [32m━━━━━━━━━━━━━━━━━━━━[0m[37m[0m [1m0s[0m 9ms/step - accuracy: 0.0745 - loss: 2.3637  
Model: "sequential_94"
┏━━━━━━━━━━━━━━━━━━━━━━━━━━━━━━━━━┳━━━━━━━━━━━━━━━━━━━━━━━━┳━━━━━━━━━━━━━━━┓
┃ Layer (type)                    ┃ Output Shape           ┃       Param # ┃
┡━━━━━━━━━━━━━━━━━━━━━━━━━━━━━━━━━╇━━━━━━━━━━━━━━━━━━━━━━━━╇━━━━━━━━━━━━━━━┩
│ dense_282 (Dense)               │ (None, 11, 100)        │           800 │
├─────────────────────────────────┼────────────────────────┼───────────────┤
│ dense_283 (Dense)               │ (None, 11, 100)        │        10,100 │
├─────────────────────────────────┼────────────────────────┼───────────────┤
│ flatten_94 (Flatten)            │ (None, 1100)           │             0 │
├─────────────────────────────────┼────────────────────────┼───────────────┤
│ dense_284 (Dense)               │ (None, 1)              │         1,101 │
└─────────────────────────────────┴────────────────────────┴───────────────┘
 Total params: 12,001 (46.88 KB)
 Trainable params: 12,001 (46.88 KB)
 Non-trainable params: 0 (0.00 B)
Model: "sequential_95"
┏━━━━━━━━━━━━━━━━━━━━━━━━━━━━━━━━━┳━━━━━━━━━━━━━━━━━━━━━━━━┳━━━━━━━━━━━━━━━┓
┃ Layer (type)                    ┃ Output Shape           ┃       Param # ┃
┡━━━━━━━━━━━━━━━━━━━━━━━━━━━━━━━━━╇━━━━━━━━━━━━━━━━━━━━━━━━╇━━━━━━━━━━━━━━━┩
│ dense_285 (Dense)               │ (None, 1, 100)         │           200 │
├─────────────────────────────────┼────────────────────────┼───────────────┤
│ dense_286 (Dense)               │ (None, 1, 100)         │        10,100 │
├─────────────────────────────────┼────────────────────────┼───────────────┤
│ flatten_95 (Flatten)            │ (None, 100)            │             0 │
├─────────────────────────────────┼────────────────────────┼───────────────┤
│ dense_287 (Dense)               │ (None, 1)              │           101 │
└─────────────────────────────────┴────────────────────────┴───────────────┘
 Total params: 10,401 (40.63 KB)
 Trainable params: 10,401 (40.63 KB)
 Non-trainable params: 0 (0.00 B)
Epoch 1/5
Model: "sequential_96"
┏━━━━━━━━━━━━━━━━━━━━━━━━━━━━━━━━━┳━━━━━━━━━━━━━━━━━━━━━━━━┳━━━━━━━━━━━━━━━┓
┃ Layer (type)                    ┃ Output Shape           ┃       Param # ┃
┡━━━━━━━━━━━━━━━━━━━━━━━━━━━━━━━━━╇━━━━━━━━━━━━━━━━━━━━━━━━╇━━━━━━━━━━━━━━━┩
│ dense_288 (Dense)               │ (None, 100)            │         1,400 │
├─────────────────────────────────┼────────────────────────┼───────────────┤
│ dense_289 (Dense)               │ (None, 100)            │        10,100 │
├─────────────────────────────────┼────────────────────────┼───────────────┤
│ flatten_96 (Flatten)            │ (None, 100)            │             0 │
├─────────────────────────────────┼────────────────────────┼───────────────┤
│ dense_290 (Dense)               │ (None, 1)              │           101 │
└─────────────────────────────────┴────────────────────────┴───────────────┘
 Total params: 11,601 (45.32 KB)
 Trainable params: 11,601 (45.32 KB)
 Non-trainable params: 0 (0.00 B)
Model: "sequential_97"
┏━━━━━━━━━━━━━━━━━━━━━━━━━━━━━━━━━┳━━━━━━━━━━━━━━━━━━━━━━━━┳━━━━━━━━━━━━━━━┓
┃ Layer (type)                    ┃ Output Shape           ┃       Param # ┃
┡━━━━━━━━━━━━━━━━━━━━━━━━━━━━━━━━━╇━━━━━━━━━━━━━━━━━━━━━━━━╇━━━━━━━━━━━━━━━┩
│ dense_291 (Dense)               │ (None, 100)            │           400 │
├─────────────────────────────────┼────────────────────────┼───────────────┤
│ dense_292 (Dense)               │ (None, 100)            │        10,100 │
├─────────────────────────────────┼────────────────────────┼───────────────┤
│ flatten_97 (Flatten)            │ (None, 100)            │             0 │
├─────────────────────────────────┼────────────────────────┼───────────────┤
│ dense_293 (Dense)               │ (None, 1)              │           101 │
└─────────────────────────────────┴────────────────────────┴───────────────┘
 Total params: 10,601 (41.41 KB)
 Trainable params: 10,601 (41.41 KB)
 Non-trainable params: 0 (0.00 B)
Model: "sequential_98"
┏━━━━━━━━━━━━━━━━━━━━━━━━━━━━━━━━━┳━━━━━━━━━━━━━━━━━━━━━━━━┳━━━━━━━━━━━━━━━┓
┃ Layer (type)                    ┃ Output Shape           ┃       Param # ┃
┡━━━━━━━━━━━━━━━━━━━━━━━━━━━━━━━━━╇━━━━━━━━━━━━━━━━━━━━━━━━╇━━━━━━━━━━━━━━━┩
│ dense_294 (Dense)               │ (None, 6, 8, 100)      │         1,000 │
├─────────────────────────────────┼────────────────────────┼───────────────┤
│ dense_295 (Dense)               │ (None, 6, 8, 100)      │        10,100 │
├─────────────────────────────────┼────────────────────────┼───────────────┤
│ flatten_98 (Flatten)            │ (None, 4800)           │             0 │
├─────────────────────────────────┼────────────────────────┼───────────────┤
│ dense_296 (Dense)               │ (None, 1)              │         4,801 │
└─────────────────────────────────┴────────────────────────┴───────────────┘
 Total params: 15,901 (62.11 KB)
 Trainable params: 15,901 (62.11 KB)
 Non-trainable params: 0 (0.00 B)
Model: "sequential_99"
┏━━━━━━━━━━━━━━━━━━━━━━━━━━━━━━━━━┳━━━━━━━━━━━━━━━━━━━━━━━━┳━━━━━━━━━━━━━━━┓
┃ Layer (type)                    ┃ Output Shape           ┃       Param # ┃
┡━━━━━━━━━━━━━━━━━━━━━━━━━━━━━━━━━╇━━━━━━━━━━━━━━━━━━━━━━━━╇━━━━━━━━━━━━━━━┩
│ dense_297 (Dense)               │ (None, 5, 100)         │           200 │
├─────────────────────────────────┼────────────────────────┼───────────────┤
│ dense_298 (Dense)               │ (None, 5, 100)         │        10,100 │
├─────────────────────────────────┼────────────────────────┼───────────────┤
│ flatten_99 (Flatten)            │ (None, 500)            │             0 │
├─────────────────────────────────┼────────────────────────┼───────────────┤
│ dense_299 (Dense)               │ (None, 1)              │           501 │
└─────────────────────────────────┴────────────────────────┴───────────────┘
 Total params: 10,801 (42.19 KB)
 Trainable params: 10,801 (42.19 KB)
 Non-trainable params: 0 (0.00 B)
[1m 1/16[0m [32m━[0m[37m━━━━━━━━━━━━━━━━━━━[0m [1m27s[0m 2s/step - accuracy: 0.0312 - loss: 2.4606[1m 3/16[0m [32m━━━[0m[37m━━━━━
…
